params/pnet.pt (torch_old, 45876 bytes, 17 tensors)

conv1.0.weight f4 [6, 3, 3, 3]
0.10418421 0.041057527 -0.09611315 0.09637723 -0.08487174 0.12338775 -0.13584721 -0.059547618
0.04787671 -0.06091687 0.09165704 -0.0013071104 0.1967247 0.33497763 -0.007520726 -0.23039494
-0.17814305 -0.19820318 -0.039786354 -0.18816076 0.028909767 0.1763344 0.23924577 0.10323063
-0.073640436 -0.09373576 0.075642645 -0.06396734 0.17894462 -0.20279449 0.11053378 0.08469485
-0.1940665 -0.14522196 -0.24379916 -0.0037708364 0.11164704 0.069813624 -0.17110361 0.22895925
-0.118302025 -0.061955247 0.18846142 0.053195436 0.11454805 0.17981084 -0.08318035 0.058046784
0.034322478 -0.11386636 -0.041207116 0.0030103675 -0.1451771 -0.17148328 -0.23580904 0.12434524
-0.019113429 -0.07328879 -0.23456168 0.034811713 0.13830101 0.13033438 -0.030796152 0.0075677135
0.14912862 0.22993083 -0.076421246 -0.30344748 0.07312085 0.05408381 -0.17955394 -0.11864128
0.017283503 0.013355347 0.16251083 -0.12921114 -0.24233443 0.022173783 0.08566429 -0.14502925
0.08702981 0.027421614 0.2614456 -0.038561013 -0.15793581 0.08489262 -0.07463025 -0.058528922
0.17753412 0.22108942 -0.04457963 -0.041603707 -0.15476252 -0.010549487 0.19946209 0.016446065
-0.13732685 -0.10229758 -0.10361037 -0.16840874 0.25043142 -0.11874159 -0.0040583 0.13409287
-0.08484206 0.12069999 0.07734192 -0.094595574 -0.033838533 -0.0141801145 -0.21740739 -0.23236088
-0.012721146 -0.1838106 -0.026439589 -0.1690745 0.050351225 0.074857704 0.15410943 0.1879636
0.16093016 -0.05047181 0.2918844 -0.1156092 0.2547337 0.078994446 -0.20511667 -0.11206494
0.13499948 -0.0377783 0.13287391 0.028737977 0.15376645 -0.027770665 -0.021498278 0.2676198
0.27278364 0.3236446 0.11442959 -0.019348815 -0.02847121 -0.05038922 -0.2891642 -0.114131875
-0.081300974 0.19643268 -0.15599202 0.071182616 -0.019853318 -0.030715896 0.088734776 -0.21614918
-0.020644153 0.10865386 -0.042696305 0.008005835 -0.049579713 -0.06069922 -0.09551556 -0.10040832
0.07053801 -0.06971287
00000000: 885e d53d f02b 283d f9d6 c4bd 6d61 c53d
00000010: 3cd1 adbd b7b2 fc3d 881b 0bbe 34e8 73bd
00000020: 5e1a 443d f883 79bd b0b6 bb3d 5953 abba
00000030: 3372 493e 3082 ab3e 6c70 f6bb a7ec 6bbe
00000040: 226b 36be c6f5 4abe 04f7 22bd 37ad 40be
00000050: 2dd4 ec3c 0191 343e d8fc 743e 956a d33d
00000060: ccd0 96bd 89f8 bfbd 88ea 9a3d 4f01 83bd
00000070: 423d 373e 5ca9 4fbe 895f e23d 7e74 ad3d
00000080: 5eb9 46be 11b5 14be 7da6 79be 2320 77bb
00000090: 34a7 e43d 72fa 8e3d c935 2fbe 4b74 6a3e
000000a0: 5548 f2bd c9c4 7dbd 08fc 403e 75e3 593d
000000b0: 2b98 ea3d 5520 383e 765a aabd 77c2 6d3d
000000c0: ba95 0c3d c432 e9bd cbc8 28bd 9649 453b
000000d0: 4ea9 14be 5099 2fbe ed77 71be b8a8 fe3d
000000e0: c493 9cbc 6f18 96bd f030 70be ba96 0e3d
000000f0: c89e 0d3e 6076 053e 3648 fcbc 95fa f73b
00000100: 2cb5 183e fd72 6b3e be82 9cbd 785d 9bbe
00000110: 62c0 953d fc86 5d3d fddc 37be 33fa f2bd
00000120: 2296 8d3c 63d0 5a3c 3d69 263e ed4f 04be
00000130: 8426 78be cba5 b53c c270 af3d 8c82 14be
00000140: af3c b23d 4ba3 e03c 33dc 853e 27f2 1dbd
00000150: edb9 21be 2fdc ad3d bfd7 98bd 06bc 6fbd
00000160: 81cb 353e 4465 623e 2199 36bd a668 2abd
00000170: 117a 1ebe c1d7 2cbc ca3f 4c3e e6b9 863c
00000180: 699f 0cbe 6581 d1bd ac31 d4bd 5773 2cbe
00000190: 8c38 803e ca2e f3bd 7dfb 84bb a44f 093e
000001a0: adc1 adbd 8e31 f73d 7165 9e3d 53bb c1bd
000001b0: 469a 0abd b653 68bc 0ba0 5ebe 03f0 6dbe
000001c0: 5b6c 50bc d938 3cbe d697 d8bc de21 2dbe
000001d0: 163d 4e3d ff4e 993d ddce 1d3e 8879 403e
000001e0: e0ca 243e 87bb 4ebd df71 953e 84c4 ecbd
000001f0: 756c 823e d7c7 a13d 1b0a 52be 4e82 e5bd
00000200: 4e3d 0a3e 6bbd 1abd 1910 083e e86b eb3c
00000210: f474 1d3e 4e7f e3bc 281d b0bc 7605 893e
00000220: 4caa 8b3e bfb4 a53e 105a ea3d 6881 9ebc
00000230: 743c e9bc ed64 4ebd 540d 94be f9bd e9bd
00000240: 2081 a6bd a625 493e 5fbc 1fbe 31c8 913d
00000250: 6da3 a2bc e79f fbbc 94ba b53d 3656 5dbe
00000260: ed1d a9bc ea85 de3d 52e2 2ebd e82a 033c
00000270: 1914 4bbd bf9f 78bd a99d c3bd e1a2 cdbd
00000280: 3b76 903d 9fc5 8ebd

conv1.0.bias f4 [6]
0.30098644 0.04733409 0.007771455 -0.18791275 0.12788238 0.07076064
00000000: e51a 9a3e 64e1 413d b1a7 fe3b 336c 40be
00000010: 99f3 023e f4ea 903d

conv1.1.weight f4 [6]
0.7196484 0.5620887 0.72846997 0.666974 0.62866527 0.6952631
00000000: e13a 383f 0ce5 0f3f 027d 3a3f cfbe 2a3f
00000010: 35f0 203f c3fc 313f

conv1.1.bias f4 [6]
0.019190352 0.21086068 0.4546986 -0.022645818 0.13251032 0.24691442
00000000: 1635 9d3c ddeb 573e 41ce e83e b983 b9bc
00000010: c9b0 073e 22d7 7c3e

conv1.1.running_mean f4 [6]
0.28021902 0.036701705 0.026891995 -0.15987249 0.02184988 0.12519342
00000000: de78 8f3e 8754 163d 9a4c dc3c 9db5 23be
00000010: 85fe b23c b432 003e

conv1.1.running_var f4 [6]
0.018079717 0.031740014 0.035391156 0.01738541 0.015423683 0.026994219
00000000: ea1b 943c d101 023d 51f6 103d d96b 8e3c
00000010: 9eb3 7c3c fb22 dd3c

conv1.4.weight f4 [16, 6, 3, 3]
-0.2138057 -0.103055984 -0.029612865 -0.21832362 -0.13707928 -0.032487676 -0.19578671 -0.088245615
0.10776514 -0.22001167 0.03624747 -0.018569835 0.06343551 -0.059355672 0.17156072 0.33137798
0.049590338 -0.08486481 -0.0012641948 -0.2242315 -0.054308344 0.055271987 -0.10927598 -0.032818396
0.122330874 0.22798295 0.01450973 0.060643073 0.08618042 0.05753213 -0.1566433 0.01697188
-0.15985745 0.014400772 -0.1723017 -0.118018836 0.03554069 0.032850087 -0.070339024 -0.012617071
0.095208734 -0.05396228 0.113001846 -0.037663717 -0.12596245 -0.00062775996 0.084205255 0.17490363
-0.05358881 0.028798567 0.005373976 0.033836607 -0.13167188 -0.040016457 0.06398714 0.13034482
0.10069652 -0.060714085 -0.19400938 0.0597284 0.034297343 0.007797512 0.040867444 0.041213486
0.05644666 -0.093394816 0.09702135 -0.11227803 -0.13049057 2.6133843e-05 -0.07394721 -0.0931945
0.15770115 0.2965837 0.045138486 -0.004217158 0.23980989 0.068752125 -0.07997108 -0.14343138
-0.0042004995 -0.07234651 0.056155432 -0.03568134 -0.04147245 -0.007334048 0.039808337 0.1652454
0.25387603 0.035269875 -0.15406106 0.0007884446 -0.054994784 -0.1984706 -0.03641126 -0.08962899
0.015470557 -0.09889664 -0.23219413 0.05115233 0.10017445 -0.02736768 -0.09487653 -0.034318384
-0.052605953 -0.093901485 -0.13637477 -0.0912307 -0.13315873 0.11455893 0.028849836 0.08009539
-0.044432174 -0.055642303 -0.033729512 0.10359543 0.006026098 0.19873632 -0.40795285 -0.14844565
-0.009598605 -0.12523021 0.014679795 0.00618407 0.07092246 0.028698608 -0.12550429 -0.26717207
-0.20309143 0.038351107 -0.04024553 -0.02930252 0.0680582 -0.020432718 0.085412644 0.074178524
-0.22114632 -0.07112785 -0.11422093 0.12414681 0.01686835 0.009326683 -0.055994704 0.023419999
0.09085073 0.037048187 -0.0518067 -0.23305139 0.017498244 -0.009647555 0.055781506 0.009107032
0.16176942 -0.07049473 -0.0048557925 0.30024767 -0.12676138 -0.1528452 0.05188053 0.007973749
0.09864371 -0.044746235 0.08245796 0.11152386 0.06396503 0.17708775 0.06514486 0.016115136
0.033766855 0.03233283 0.027662022 -0.17390256 -0.09179771 0.13108215 -0.028051965 0.18083508
0.108397566 0.10030803 0.3038423 0.042522345 0.12411655 0.09604197 0.053279623 -0.100484274
-0.015099748 0.09698553 -0.08962085 -0.039292697 0.019609293 -0.027199123 -0.038793482 0.032273177
-0.02574833 0.035800934 -0.0646281 0.047605272 -0.0053323573 0.009755764 0.016492095 0.2561506
0.15696356 0.023610381 0.2516544 0.06268398 -0.12132598 0.0015001226 -0.10576897 0.023511952
-0.10772988 -0.15727548 0.12526423 -0.10438321 -0.19354388 -0.023635175 -0.21380323 -0.15747285
-0.21278226 0.16088808 0.015441324 0.0045648026 0.09115275 0.118069075 0.017402152 -0.021213593
0.051360182 0.12847783 -0.02129507 -0.110137664 -0.034024388 -0.15768513 -0.18708652 -0.18387519
-0.13823426 -0.32287875 -0.04659992 -0.04649744 -0.01851434 -0.046582893 -0.05601953 -0.00089489116
0.076631 -0.023854638 0.10610503 -0.17037652 -0.15314996 -0.10134997 9.012009e-05 -0.07097237
0.05831119 -0.06883419 -0.041942216 -0.09684758 -0.014160088 0.007081491 -0.19896752 0.18830535
00000000: e2ef 5abe 040f d3bd ae96 f2bc 3a90 5fbe
00000010: 835e 0cbe cc11 05bd 507c 48be 1eba b4bd
00000020: f8b3 dc3d bd4a 61be 3a78 143d c41f 98bc
00000030: 7aea 813d ef1e 73bd 9dad 2f3e 60aa a93e
00000040: 3d1f 4b3d 9acd adbd 57b3 a5ba f19c 65be
00000050: 6d72 5ebd e164 623d 16cc dfbd 956c 06bd
00000060: 9c88 fa3d 5d74 693e 38ba 6d3c df64 783d
00000070: 5c7f b03d d0a6 6b3d 1a67 20be 9d08 8b3c
00000080: acb1 23be 37f1 6b3c db6f 30be dcb3 f1bd
00000090: 1d93 113d d08d 063d e80d 90bd d5b7 4ebc
000000a0: ccfc c23d 8d07 5dbd 836d e73d 4545 1abd
000000b0: 4dfc 00be 4290 24ba ce73 ac3d f019 333e
000000c0: f17f 5bbd f9ea eb3c 2e18 b03b 4198 0a3d
000000d0: fed4 06be 4ce8 23bd b10b 833d 1d79 053e
000000e0: fa39 ce3d 55af 78bd 65aa 46be c4a5 743d
000000f0: 5f7b 0c3d 4682 ff3b 9f64 273d 79cf 283d
00000100: 9d34 673d c845 bfbd 21b3 c63d 06f2 e5bd
00000110: 529f 05be 003a db37 a371 97bd c2dc bebd
00000120: 697c 213e d2d9 973e 22e3 383d 1630 8abb
00000130: b990 753e eacd 8c3d e1c7 a3bd addf 12be
00000140: 58a4 89bb 682a 94bd 3d03 663d 9926 12bd
00000150: 04df 29bd 7452 f0bb 110e 233d 1736 293e
00000160: 0afc 813e 2577 103d 2fc2 1dbe 9faf 4e3a
00000170: 3642 61bd e13b 4bbe f923 15bd 678f b7bd
00000180: 3878 7d3c 528a cabd 4cc4 6dbe 1b85 513d
00000190: 4328 cd3d 2f32 e0bc a04e c2bd 6f91 0cbd
000001a0: 5779 57bd 6c4f c0bd d4a5 0bbe 29d7 babd
000001b0: c35a 08be df9d ea3d 7e56 ec3c 0d09 a43d
000001c0: 83fe 35bd 2fe9 63bd f527 0abd d729 d43d
000001d0: 9376 c53b 8981 4b3e 32df d0be 2302 18be
000001e0: 7843 1dbc 593c 00be 8683 703c bda3 ca3b
000001f0: cb3f 913d 5819 eb3c 3284 00be c7ca 88be
00000200: 33f7 4fbe 0d16 1d3d 7fd8 24bd d70b f0bc
00000210: 1962 8b3d 8462 a7bc d3ec ae3d e9ea 973d
00000220: 2e74 62be 7aab 91bd aaec e9bd af40 fe3d
00000230: 7e2f 8a3c f2ce 183c b45a 65bd 4cdb bf3c
00000240: f30f ba3d d7bf 173d 4333 54bd 06a5 6ebe
00000250: 7a58 8f3c c710 1ebc 267b 643d a935 153c
00000260: e2a6 253e 8a5f 90bd 571d 9fbb 10ba 993e
00000270: bccd 01be 7483 1cbe ae80 543d 54a4 023c
00000280: b705 ca3d d447 37bd b8df a83d 9f66 e43d
00000290: 1900 833d 7e56 353e ab6a 853d e403 843c
000002a0: 1d4f 0a3d 6e6f 043d 779b e23c 8313 32be
000002b0: 7000 bcbd 663a 063e 3ccd e5bc d52c 393e
000002c0: 8bff dd3d 4c6e cd3d 3891 9b3e e92b 2e3d
000002d0: d130 fe3d a7b1 c43d bc3b 5a3d b3ca cdbd
000002e0: ef64 77bc 59a0 c63d 238b b7bd 61f1 20bd
000002f0: aba3 a03c b2d0 debc eae5 1ebd e130 043d
00000300: 29ee d2bc 00a4 123d bd5b 84bd bffd 423d
00000310: 0ebb aebb a4d6 1f3c 6e1a 873c 2c26 833e
00000320: 0ebb 203e 8f6a c13c d8d8 803e 7560 803d
00000330: c179 f8bd c39f c43a 679d d8bd 239c c03c
00000340: 7ca1 dcbd d30c 21be 4445 003e ddc6 d5bd
00000350: 5e30 46be 8e9e c1bc 3cef 5abe 9040 21be
00000360: 98e3 59be d8bf 243e 9bfd 7c3c 5794 953b
00000370: 4bae ba3d 33ce f13d f58e 8e3c 21c8 adbc
00000380: 0e5f 523d b18f 033e 0073 aebc db8f e1bd
00000390: 285d 0bbd 3678 21be 9c93 3fbe c749 3cbe
000003a0: 488d 0dbe 5d50 a5be 8fdf 3ebd 1a74 3ebd
000003b0: 63ab 97bc b4cd 3ebd bc74 65bd 2197 6aba
000003c0: b7f0 9c3d cd6a c3bc 984d d93d 2f77 2ebe
000003d0: 58d3 1cbe 9390 cfbd dbfe bc38 f659 91bd
000003e0: b7d7 6e3d f1f8 8cbd 9acb 2bbd 0658 c6bd
000003f0: b7ff 67bc da0b e83b 24be 4bbe 1ed3 403e

conv1.4.bias f4 [16]
0.10115598 0.08275291 -0.0055795717 0.046338562 -0.03979249 0.11379957 -0.111467496 -0.006697691
0.13030803 0.078312956 -0.035764556 0.020670045 0.05425805 0.06460833 0.07100277 -0.114625886
00000000: de2a cf3d 5c7a a93d d7d4 b6bb 81cd 3d3d
00000010: 73fd 22bd c00f e93d 1249 e4bd 4e78 dbbb
00000020: 786f 053e 8b62 a03d db7d 12bd 3a54 a93c
00000030: b03d 5e3d 5f51 843d e669 913d fac0 eabd

conv1.5.weight f4 [16]
0.37290472 0.9511441 0.4006725 0.92346823 1.003181 0.8289071 0.64753205 0.5265996
1.0035341 0.6086208 0.3777597 0.6113629 0.31298524 0.6066327 0.9131774 0.88922447
00000000: 5eed be3e 2e7e 733f f224 cd3e 6a68 6c3f
00000010: 3c68 803f 4133 543f a9c4 253f 3bcf 063f
00000020: ce73 803f 93ce 1b3f b869 c13e 4782 1c3f
00000030: 9a3f a03e 484c 1b3f fec5 693f 37a4 633f

conv1.5.bias f4 [16]
0.09293531 -0.2035255 0.19628415 0.074849725 -0.11518797 0.2127885 -0.14872505 0.016384656
-0.19987905 0.1065491 -0.12836815 -0.028941095 -0.19766903 -0.027223324 -0.027957715 -0.16170527
00000000: de54 be3d fd68 50be b6fe 483e d04a 993d
00000010: ace7 ebbd 3be5 593e 614b 18be 1d39 863c
00000020: 18ad 4cbe 6a36 da3d f172 03be e015 edbc
00000030: c069 4abe 7303 dfbc 9407 e5bc 1196 25be

conv1.5.running_mean f4 [16]
-0.391612 0.10370094 -0.6158488 0.43372357 -1.0397274 -0.11684327 -0.40775466 -0.031022547
-0.5702947 0.043273013 -0.098021775 -0.043628227 -0.8863657 -0.94558483 -0.569433 -1.1016927
00000000: 5e81 c8be 2961 d43d 44a8 1dbf 0411 de3e
00000010: ca15 85bf 864b efbd 38c5 d0be ff22 febc
00000020: d5fe 11bf 0b3f 313d a4bf c8bd 83b3 32bd
00000030: dde8 62bf d911 72bf 5cc6 11bf 4404 8dbf

conv1.5.running_var f4 [16]
0.2737563 0.42786545 0.21623752 0.27967566 0.29514742 0.23959886 0.17396429 0.28565365
0.29466525 0.19007525 0.27318013 0.1825497 0.30689877 0.30425075 0.18421261 0.43932375
00000000: c929 8c3e 2e11 db3e 5e6d 5d3e a631 8f3e
00000010: 901d 973e 6759 753e b223 323e 3241 923e
00000020: 5dde 963e 16a3 423e 44de 8b3e 4fee 3a3e
00000030: d621 9d3e c1c6 9b3e 3ba2 3c3e 0bef e03e

conv1.7.weight f4 [64, 16, 3, 3]
0.24881785 0.14560555 0.258556 0.017165225 0.10438462 -0.06116255 0.06844166 0.0624008
0.14458428 -0.045369443 -0.04925353 -0.011993988 0.16181834 0.11934756 0.09638194 -0.0073843487
0.012437058 0.009402236 -0.038624324 0.15089981 0.26724866 0.21008721 0.23650219 0.064107046
-0.04449129 -0.12603457 -0.022740304 0.1519251 0.08844899 0.04616655 -0.030347278 -0.037099373
-0.036813345 0.028879976 0.1118423 0.120050356 0.029140558 0.15788946 0.1636104 0.0532246
0.001496309 0.055683278 0.07854855 0.15103939 0.05658986 0.14832933 -0.08685278 -0.1974863
0.10155717 0.01689663 0.04924072 -0.052500226 -0.00674434 0.042621195 0.04767175 0.13186601
0.10982289 0.11579632 0.13164559 0.1048853 0.062112074 0.02095765 -0.011073967 0.22972207
0.04388749 0.036848385 0.06418321 0.051701378 0.033043545 0.0082191285 0.019469528 0.017680123
0.12189156 0.002317379 0.07057587 0.10952757 -0.04484731 -0.054378934 -0.003060747 -0.08523631
-0.028632786 -0.45522627 -0.37810925 -0.18792054 0.03246207 0.02125182 -0.025796246 -0.02475473
-0.0077632726 -0.027042609 0.058826588 0.0061472254 0.097343124 0.08681011 0.1434753 0.064133234
-0.06594693 -0.02776391 0.036237247 0.08948513 0.18590151 0.121530496 0.046081897 0.1298808
0.05425183 -0.016530087 -0.020244101 -0.027197191 0.38880473 0.21560693 0.2049281 0.017528495
0.04080827 0.027653478 0.14820068 0.22210188 0.08193734 0.04252999 -0.062157787 0.016224425
0.052002303 -0.03444241 -0.083264224 0.024256583 0.05725908 0.08847086 0.08859819 -0.06201263
0.024219181 0.0022423803 -0.0613868 -0.041441612 0.14179878 0.17247339 0.08929516 0.09811282
0.10509949 0.013399529 -0.0005406037 0.015321969 -0.04346243 0.10619148 0.036577873 -0.04314109
-0.08924332 0.13446046 0.05896833 0.06725336 -0.14011438 -0.049947593 0.18299116 -0.06849086
-0.11130626 -0.076490805 -0.13303758 -0.058321107 -0.04638169 -0.05679007 -0.053252786 -0.052139293
-0.26174012 -0.11999382 0.14273107 0.12722097 0.027328225 0.098675124 0.112541 -0.029967643
-0.034059815 0.12502646 0.15678272 -0.1981234 -0.107765436 -0.037165932 -0.048975453 -0.1541266
-0.060925007 -0.11187033 -0.16380733 -0.016277598 -0.023838816 -0.07783852 -0.011127611 0.053695027
0.027751368 -0.033483 -0.071186125 -0.055093776 -0.06977305 0.03884418 -0.12619714 -0.10073092
-0.127874 -0.008815579 -0.00873393 -0.12293547 -0.03868228 0.118431434 -0.11770676 -0.0845236
-0.16417378 -0.24515314 -0.15644975 -0.22952977 -0.16243762 -0.18629183 -0.19385093 -0.15016744
0.10882006 0.1808708 -0.13101684 -0.13543192 -0.03929759 -0.20894544 0.027557112 0.1003148
0.08754626 0.08269524 -0.022874562 0.031097557 0.013067647 -0.22996745 0.1105622 0.00024210503
-0.19275069 0.109813504 0.0843074 0.16451919 0.051822927 0.086737916 0.018828023 -0.09757645
-0.016021695 0.24073024 -0.3829407 -0.11670723 -0.037940726 -0.23566544 -0.10218853 -0.088199176
-0.24621445 0.003684596 0.062351514 -0.18814142 -0.08721187 -0.10808349 -0.17662276 -0.06521981
-0.10188055 -0.05415918 -0.20945056 -0.19307569 -0.1693367 -0.059446726 -0.031685106 -0.06334152
00000000: 1bca 7e3e 9f19 153e 7461 843e 169e 8c3c
00000010: 9bc7 d53d 9585 7abd 242b 8c3d fb97 7f3d
00000020: e70d 143e 4fd5 39bd 12be 49bd 6f82 44bc
00000030: b5b3 253e 7e6c f43d e563 c53d 68f8 f1bb
00000040: cdc4 4b3c d60b 1a3c 8a34 1ebd 7b85 1a3e
00000050: d1d4 883e 1a21 573e a12d 723e 8e4a 833d
00000060: 803c 36bd 350f 01be e049 babc 4192 1b3e
00000070: be24 b53d 2319 3d3d db9a f8bc 83f5 17bd
00000080: 97c9 16bd b395 ec3c 930d e53d f6dc f53d
00000090: 2eb8 ee3c c6ad 213e 7c89 273e 0a02 5a3d
000000a0: cc1f c43a 2614 643d 10de a03d 12aa 1a3e
000000b0: c5ca 673d a5e3 173e dfdf b1bd d939 4abe
000000c0: 35fd cf3d cd6a 8a3c a3b0 493d 7a0a 57bd
000000d0: a0ff dcbb 9093 2e3d 7443 433d e207 073e
000000e0: d3ea e03d 9f26 ed3d 1ace 063e 1bce d63d
000000f0: 3b69 7e3d 61af ab3c 966f 35bc 433c 6b3e
00000100: 5ec3 333d 55ee 163d 7d72 833d d3c4 533d
00000110: ab58 073d 86a9 063c 8f7e 9f3c e8d5 903c
00000120: 48a2 f93d 2bdf 173b 158a 903d fe4f e03d
00000130: d0b1 37bd 72bc 5ebd d096 48bb 6090 aebd
00000140: 4e8f eabc 6b13 e9be 8997 c1be 3e6e 40be
00000150: f3f6 043d 4c18 ae3c a652 d3bc 6eca cabc
00000160: 0d63 febb 7688 ddbc 26f4 703d aa6e c93b
00000170: d55b c73d 80c9 b13d 30eb 123e 4958 833d
00000180: 2f0f 87bd 2471 e3bc 826d 143d fb43 b73d
00000190: f75c 3e3e fbe4 f83d 5fc0 3c3d 79ff 043e
000001a0: 2b37 5e3d 1b6a 87bc f5d6 a5bc a5cc debc
000001b0: 6a11 c73e 10c8 5c3e acd8 513e eb97 8f3c
000001c0: 9326 273d 8c89 e23c ebc1 173e ad6e 633e
000001d0: c4ce a73d ed33 2e3d 2a99 7ebd 16e9 843c
000001e0: 5e00 553d 7c13 0dbd 6f86 aabd beb5 c63c
000001f0: 7f88 6a3d 3630 b53d f872 b53d f500 7ebd
00000200: 4e67 c63c e6f4 123b ba70 7bbd aebe 29bd
00000210: b333 113e dd9c 303e 61e0 b63d 60ef c83d
00000220: 673e d73d b389 5b3c 4db7 0dba ff08 7b3c
00000230: a905 32bd eb7a d93d aed2 153d b6b4 30bd
00000240: 34c5 b6bd 01b0 093e c788 713d 21bc 893d
00000250: 257a 0fbe d995 4cbd 0962 3b3e f044 8cbd
00000260: 89f4 e3bd 36a7 9cbd 013b 08be 1de2 6ebd
00000270: bafa 3dbd b49c 68bd 981f 5abd 0390 55bd
00000280: cd02 86be 52bf f5bd 1828 123e 3746 023e
00000290: 71df df3c 2f16 ca3d e57b e63d b47e f5bc
000002a0: 4e82 0bbd f006 003e a68b 203e dce0 4abe
000002b0: 20b4 dcbd 4e3b 18bd 7c9a 48bd 5dd3 1dbe
000002c0: 808c 79bd 461c e5bd 1cbd 27be 9958 85bc
000002d0: 9f49 c3bc cd69 9fbd 9550 36bc 51ef 5b3d
000002e0: d656 e33c 7825 09bd 08ca 91bd 03aa 61bd
000002f0: 2ce5 8ebd 131b 1f3d d339 01be 034c cebd
00000300: 67f1 02be 386f 10bc c218 0fbc 97c5 fbbd
00000310: 4f71 1ebd 2e8c f23d 3e10 f1bd b61a adbd
00000320: 2c1d 28be 6d09 7bbe 5d34 20be da09 6bbe
00000330: 0c56 26be 49c3 3ebe dc80 46be 7ec5 19be
00000340: 0ddd de3d 3236 393e 4729 06be aaae 0abe
00000350: 82f6 20bd cbf5 55be 74bf e13c d971 cd3d
00000360: 744b b33d 1f5c a93d 6f63 bbbc 4ec0 fe3c
00000370: af19 563c 967c 6bbe 6f6e e23d 93dd 7d39
00000380: 7060 45be e7e5 e03d 5ca9 ac3d b877 283e
00000390: 4744 543d a6a3 b13d 3a3d 9a3c 29d6 c7bd
000003a0: ee3f 83bc fd81 763e ce10 c4be 3304 efbd
000003b0: bc67 1bbd 4852 71be 3848 d1bd c5a1 b4bd
000003c0: a41f 7cbe 4379 713b 4d64 7f3d 25a8 40be
000003d0: 239c b2bd e05a ddbd 99dc 34be f791 85bd
000003e0: c0a6 d0bd 04d6 5dbd 357a 56be a2b5 45be
000003f0: 9a66 2dbe 697e 73bd 3ec8 01bd 33b9 81bd

conv1.7.bias f4 [64]
-0.04032777 0.22578293 0.22784634 0.10319936 0.15066804 0.04250088 -0.007120332 0.082102194
-0.09667059 0.16595338 0.15542983 -0.21566762 0.15892893 -0.17849553 -0.09084719 0.080349654
-0.22723858 -0.057605162 -0.18489629 0.1331242 0.2266047 -0.011645308 -0.019057387 0.034605112
0.18664965 -0.33426127 0.1397398 0.12917086 -0.058069263 0.093079194 0.06684091 -0.018018391
0.16628443 -0.060053963 0.14669862 0.06133408 0.18135978 0.23767501 -0.043773975 0.23516895
0.005752184 -0.019385375 0.2245346 -0.031840324 0.13973504 0.16822428 -0.14689732 0.14299428
0.13807257 0.20802894 0.16679503 0.054429602 -0.20475896 -0.099759385 0.15135008 0.15720086
-0.0899672 -0.18582745 -0.0227297 -0.017682554 0.07662213 0.11581362 0.033370942 -0.22881775
00000000: bb2e 25bd a433 673e 8d50 693e 305a d33d
00000010: b948 1a3e 6715 2e3d ad51 e9bb 3225 a83d
00000020: 3bfb c5bd afef 293e ff28 1f3e f9d7 5cbe
00000030: 44be 223e 88c7 36be 170e babd 5c8e a43d
00000040: 3bb1 68be 64f3 6bbd 7455 3dbe b651 083e
00000050: 100b 683e f6cb 3ebc 3d1e 9cbc 17be 0d3d
00000060: 1621 3f3e 4b24 abbe f317 0f3e 5e45 043e
00000070: 09da 6dbd 4ea0 be3d e3e3 883d 4e9b 93bc
00000080: 7746 2a3e 25fb 75bd 2a38 163e 7239 7b3d
00000090: 61b6 393e 1461 733e 574c 33bd 21d0 703e
000000a0: d17c bc3b 14ce 9ebc 66ec 653e 006b 02bd
000000b0: b416 0f3e fc42 2c3e 406c 16be 186d 123e
000000c0: e562 0d3e 8a05 553e 51cc 2a3e 93f1 5e3d
000000d0: 55ac 51be a64e ccbd 84fb 1a3e 43f9 203e
000000e0: b940 b8bd 8d49 3ebe a333 babc 01db 90bc
000000f0: 10ec 9c3d b12f ed3d f8af 083d 334f 6abe

conv_1.weight f4 [1, 64, 1, 1]
-0.18176657 0.49561957 0.22784668 0.27858114 0.57151604 -0.3141783 -0.332052 0.24910736
-0.12878019 0.4691449 0.41869795 -0.29522938 0.3167986 -0.30315796 -0.13390224 0.39304107
-0.19858646 -0.4148663 -0.1955826 0.37930816 0.3126488 -0.2691873 -0.21517627 -0.2235023
0.24113639 -0.2954907 0.49415588 -0.3892777 -0.26781765 0.26199755 -0.31986257 -0.32162416
0.30565342 -0.20530923 0.33031726 0.30309007 0.48984894 0.42836916 -0.24533741 0.22225712
-0.1896084 -0.13799125 0.4516847 -0.3285911 0.37636176 0.51364046 -0.16442499 0.59577227
-0.04300569 0.37556297 0.5936113 0.6240055 -0.23297629 -0.011767665 0.24506359 0.5322315
-0.18458723 -0.3443107 -0.18908569 -0.28357285 0.28351575 0.3975136 -0.19578116 -0.28576836
00000000: 0421 3abe d9c1 fd3e a450 693e 30a2 8e3e
00000010: e04e 123f fadb a0be b802 aabe 0016 7f3e
00000020: f4de 03be c333 f03e 945f d63e 4e28 97be
00000030: 6d33 a23e 8537 9bbe ab1d 09be ae3c c93e
00000040: 405a 4bbe 5b69 d4be ce46 48be ae34 c23e
00000050: 8113 a03e ebd2 89be 2b57 5cbe c9dd 64be
00000060: 75ec 763e 8f4a 97be 0002 fd3e 684f c7be
00000070: 651f 89be 8b24 863e 07c5 a3be ecab a4be
00000080: 9b7e 9c3e 953c 52be 581f a93e 9f2e 9b3e
00000090: 7bcd fa3e 3453 db3e bb39 7bbe 5f97 633e
000000a0: b428 42be 944d 0dbe 3843 e73e 183d a8be
000000b0: 7db2 c03e f17d 033f 065f 28be 8884 183f
000000c0: bc26 30bd ca49 c03e e9f6 173f d3be 1f3f
000000d0: 5691 6ebe 2acd 40bc f3f1 7a3e 5340 083f
000000e0: 6f04 3dbe 7e49 b0be ae9f 41be 7630 91be
000000f0: fa28 913e e786 cb3e db7a 48be 3b50 92be

conv_4.weight f4 [4, 64, 1, 1]
-0.010457498 0.0016927924 0.046769425 -0.07585379 -0.012501977 0.0005277794 0.006289102 0.019762801
0.0039020237 -0.010103967 0.008606263 0.0018844897 -0.007592215 -0.005321333 -0.011370098 -0.02239264
-0.002116063 -0.002588661 0.0067540673 0.0057832273 0.004261582 -0.0039010388 -0.0070343236 0.008124284
0.037131533 -0.009411719 0.0052032946 -0.0040619643 -0.0024157641 -0.0061766114 -0.0045897937 -0.0042054043
0.0033472427 0.009344477 -0.03468607 0.001259643 0.00268261 0.008698101 -0.002797935 -0.018770535
0.002675272 -0.0071262987 -0.00839533 -0.006502012 -0.013611408 0.017036581 -0.002335898 0.0022762052
0.024291525 0.007781469 0.0017788191 0.0044508236 -0.00095386826 0.10396785 -0.0045563243 -0.018595053
0.0035920474 0.0053191376 0.0026330145 -0.00032609658 0.014762716 0.021032177 -0.0014636375 -0.0007535651
0.04133042 0.004524079 0.012030363 -0.02703067 -0.0105495155 -0.0016304604 0.011472573 0.027544085
-0.02102768 -0.008590138 0.018848177 0.0036761533 -0.0011367153 0.0059897024 -0.010060079 -0.03845412
-0.0009995122 0.0026179976 -0.000103017934 0.00017537392 0.0020285659 -0.009017716 -0.0010189877 0.0054736473
0.0027533327 -0.00060163083 0.026160005 -0.0021549498 0.0013905828 -0.014695778 -0.009599323 -0.0046181097
0.019991789 0.004181239 -0.05055494 0.011767472 -0.010723605 -0.0016666149 0.0078468975 -0.006631161
-0.009601928 -0.0299524 -0.005532171 -0.010035893 -0.0010840618 0.02117204 0.014550474 -0.026188971
0.07925566 -0.0012710129 -0.007724745 -0.006751571 -0.005903303 -0.086198464 0.010826037 -0.014582619
0.0055919974 -0.00025239968 0.006108975 -0.0042370665 0.0048568267 0.03827146 -0.01579691 0.0045297476
0.0018262077 -0.0047032903 0.014542513 -0.013521854 0.017820496 0.0021422305 -0.0014829653 -0.03855904
0.0059199864 0.0028178531 -0.003719086 -0.005512616 0.006661091 -0.005132363 -0.0042060954 0.0007229884
0.0031848734 -0.012521834 0.0117578115 -0.0012453421 0.0043186718 -0.004498576 -0.009493721 0.001695512
0.02168435 -0.0038503804 -0.0086726025 -0.0048896438 -0.002148447 0.015758494 0.014586805 0.0007710737
-0.021203665 0.0044003106 0.012432767 -0.036414716 0.01931568 0.003327709 -0.0018885869 -0.017839724
-0.00548362 0.005647817 0.0049125096 0.005905563 -0.01746275 -0.008252016 -0.005561055 0.010120743
-0.027916297 0.014539737 0.012222194 0.018393453 -0.012541799 0.100922674 0.0028239242 0.0031662642
0.0014986569 -0.0026496504 0.015418407 -0.00395098 0.024929658 -0.018435648 0.010219516 -0.0051854206
0.05379113 -0.00075983966 -0.029552981 0.061480958 0.030518642 -0.00075201626 -0.0020283258 -0.05748036
-0.016711356 0.008481925 0.004111924 -0.0056522475 0.017917132 0.0037312037 -0.0013150999 -0.004863998
0.0026076226 -0.007650441 0.0072811665 -0.011270062 -0.00013469454 -0.013754704 -0.007217123 -0.00438561
-0.014543012 0.0019222248 0.0077893864 -0.0048933257 0.002657914 0.015157468 0.015681328 0.0028903328
-0.014307699 -0.0025020132 0.01404743 -0.040110324 0.012991529 -0.008049533 0.0070604743 -0.006954941
-0.021847645 -0.012147826 0.009152285 0.0074355206 -0.00710953 -0.011676681 0.008035395 -0.016222786
0.006047662 0.009510489 0.0070953234 0.014682257 -0.016269838 -0.07511035 0.02074402 0.0151464
0.0043649715 -0.0038849642 0.022254687 -0.0077961073 0.02184022 -0.015901392 -0.0015372125 -0.000266493
00000000: ed55 2bbc b0e0 dd3a 4c91 3f3d 3b59 9bbd
00000010: 18d5 4cbc ad5a 0a3a d014 ce3b 99e5 a13c
00000020: 18b9 7f3b 1c8b 25bc 4901 0d3c fb00 f73a
00000030: 1ec8 f8bb 945e aebb a649 3abc c570 b7bc
00000040: a5ad 0abb 86a6 29bb 3951 dd3b 3a81 bd3b
00000050: bea4 8b3b 92a8 7fbb 2f80 e6bb b81b 053c
00000060: 3c17 183d 9c33 1abc 6680 aa3b 3a1a 85bb
00000070: cc51 1ebb 2c65 cabb fb65 96bb 7dcd 89bb
00000080: 6a5d 5b3b 9419 193c fb12 0ebd 9b1a a53a
00000090: bace 2f3b 7b82 0e3c 8f5d 37bb aac4 99bc
000000a0: 9e53 2f3b ba83 e9bb 918c 09bc d40e d5bb
000000b0: 6202 5fbc 4d90 8b3c de15 19bb 632c 153b
000000c0: 05ff c63c b1fb fe3b 4427 e93a 37d8 913b
000000d0: 040d 7aba 19ed d43d 384d 95bb a754 98bc
000000e0: 8e68 6b3b 294c ae3b a78e 2c3b f1f7 aab9
000000f0: 52df 713c ac4b ac3c 86d7 bfba e68a 45ba
00000100: 164a 293d ba3e 943b 001b 453c 6c6f ddbc
00000110: e0d7 2cbc 2cb5 d5ba 75f7 3b3c 22a4 e13c
00000120: 3e42 acbc a6bd 0cbc 7e67 9a3c 9eeb 703b
00000130: d6fd 94ba 4445 c43b 08d3 24bc 1182 1dbd
00000140: 1002 83ba b692 2b3b 550b d8b8 94e4 3739
00000150: b0f1 043b 0bbf 13bc 8e8f 85ba 485c b33b
00000160: 4271 343b c3b6 1dba 824d d63c 0f3a 0dbb
00000170: 3744 b63a 8fc6 70bc 7b46 1dbc 8353 97bb
00000180: d2c5 a33c c602 893b b212 4fbd 5bcc 403c
00000190: 0fb2 2fbc 5172 daba 4690 003c 364a d9bb
000001a0: 6851 1dbc bc5e f5bc 3747 b5bb 966d 24bc
000001b0: 1417 8eba fc70 ad3c 1c65 6e3c 418a d6bc
000001c0: cb50 a23d 1e98 a6ba dc1f fdbb 483c ddbb
000001d0: 7f70 c1bb d288 b0bd b15f 313c f0eb 6ebc
000001e0: 133d b73b 8354 84b9 cc2d c83b 17d7 8abb
000001f0: 0426 9f3b 89c2 1c3d 8568 81bc 476e 943b
00000200: 5d5d ef3a 0f1e 9abb b843 6e3c c48a 5dbc
00000210: 4afc 913c aa64 0c3b 0f60 c2ba 15f0 1dbd
00000220: 72fc c13b bbab 383b e9bb 73bb 2da3 b4bb
00000230: 4845 da3b 622d a8bb 49d3 89bb ee86 3d3a
00000240: 4fb9 503b 6128 4dbc d6a3 403c bf3a a3ba
00000250: a583 8d3b ca68 93bb 8d8b 1bbc f13b de3a
00000260: 61a3 b13c aa56 7cbb 8817 0ebc 4e39 a0bb
00000270: f6cc 0cbb f517 813c 7ffd 6e3c e121 4a3a
00000280: 4fb3 adbc 7b30 903b ceb2 4b3c 9927 15bd
00000290: eb3b 9e3c b115 5a3b 768a f7ba 9d24 92bc
000002a0: f0af b3bb 5311 b93b 1ef9 a03b 7483 c13b
000002b0: 0b0e 8fbc 7733 07bc 8339 b6bb 79d1 253c
000002c0: b8b0 e4bc 1438 6e3c 993f 483c dead 963c
000002d0: 1e7c 4dbc 8cb0 ce3d 9611 393b 1981 4f3b
000002e0: 956e c43a c2a5 2dbb 7c9d 7c3c 3977 81bb
000002f0: 4839 cc3c 5b06 97bc c26f 273c 76ea a9bb
00000300: 1754 5c3d fa2f 47ba 1819 f2bc 75d3 7b3d
00000310: 3b02 fa3c f522 45ba a9ed 04bb 8770 6bbd
00000320: 41e6 88bc c6f7 0a3c 52bd 863b 7d36 b9bb
00000330: f3c6 923c 3687 743b 6e5f acba 2c62 9fbb
00000340: a6e4 2a3b 8db0 fabb da96 ee3b 11a6 38bc
00000350: ca3c 0db9 695b 61bc 9e7d ecbb 2ab5 8fbb
00000360: d045 6ebc 29f3 fb3a 1c3e ff3b 3158 a0bb
00000370: 6630 2e3b 0757 783c 2176 803c bd6b 3d3b
00000380: d76a 6abc d1f8 23bb 3127 663c b94a 24bd
00000390: 6cda 543c 30e2 03bc 8d5b e73b 46e6 e3bb
000003a0: d5f9 b2bc ad07 47bc 77f3 153c aba5 f33b
000003b0: 0ff7 e8bb 8d4f 3fbc e4a6 033c a6e5 84bc
000003c0: 772b c63b e2d1 1b3c e37f e83b d98d 703c
000003d0: 5348 85bc 75d3 99bd 5def a93c 9b28 783c
000003e0: 0908 8f3b e29a 7ebb 764f b63c 7d76 ffbb
000003f0: 43ea b23c a343 82bc 4b7c c9ba 16b8 8bb9

conv_4.bias f4 [4]
0.120991535 0.0076356665 -0.1694432 -0.013833577
00000000: 69ca f73d 9d34 fa3b 8582 2dbe 3aa6 62bc
