params/rnet.pt (torch_old, 378300 bytes, 23 tensors)

conv1.0.weight f4 [28, 3, 3, 3]
0	0xbe732b93	-0.23747091
1	0xbbde574d	-0.0067853094
2	0x3d25069e	0.040289514
3	0xbd8d5562	-0.06901051
4	0xbe3bc055	-0.18335088
5	0x3dd9f56a	0.10642512
6	0xbd93ba00	-0.07213211
7	0x3e2ac6dd	0.16677423
8	0x3e10415d	0.14087434
9	0xbda50163	-0.08056905
10	0x3c8969b7	0.016774042
11	0x3da8fe81	0.08251668
12	0x3cb41a72	0.021985266
13	0x3d18fa59	0.037348125
14	0x3e3a9649	0.18221392
15	0x3b33d115	0.0027437855
16	0xbdb9c0ad	-0.09069953
17	0x3e2f8b46	0.17142972
18	0xbe8c7450	-0.2743249
19	0xbd8ce63b	-0.068798505
20	0x3e0ced9c	0.13762516
21	0xbe21ff8e	-0.15820143
22	0xbde7f2b8	-0.11325592
23	0x3db87352	0.090063706
24	0xbd851787	-0.06498628
25	0xbb3e9a3c	-0.002908363
26	0x3df6e8f3	0.1205615
27	0xbe558e43	-0.2085505
28	0x3e2baa20	0.16764116
29	0x3e140408	0.14454663
30	0xbd29a724	-0.041419163
31	0x3dbdca77	0.09267133
32	0x3e70b1ca	0.23505321
33	0xbd17cfc0	-0.03706336
34	0xbe7ac66a	-0.24489751
35	0x3e37420d	0.1789629
36	0xbd5444a6	-0.05182328
37	0xbd43dbc1	-0.047816996
38	0xbc2f1de9	-0.0106882835
39	0xbe4e2e85	-0.20134933
40	0xbdbd2852	-0.09236206
41	0x3e4f491f	0.20242737
42	0xbccc94ad	-0.024973238
43	0xbe7c70db	-0.24652426
44	0x3d9f27f9	0.07771296
45	0x3da6a990	0.0813781
46	0x3d960eff	0.07327079
47	0x3e122ab3	0.14274101
48	0x3bafef02	0.005369068
49	0xbd774e92	-0.060377665
50	0x3c16273d	0.009164629
51	0x3e41f02f	0.18939279
52	0xbe80857d	-0.25101843
53	0xbe348689	-0.17629446
54	0xbe276d51	-0.16350295
55	0xbdb6374d	-0.088972665
56	0x3dd99011	0.106231816
57	0x3c446833	0.011987734
58	0x3dac0dcf	0.08401071
59	0x3dac321c	0.08407995
60	0x3d52fde7	0.05151167
61	0x3e4120cb	0.18860166
62	0xbe98aa5e	-0.2981748
63	0xbd5a0fe6	-0.05323782
64	0x3dba5bf7	0.09099572
65	0xbc36c9f3	-0.011156547
66	0xbe215f36	-0.15758976
67	0x3d348eee	0.04408162
68	0xbe36bb3d	-0.17844863
69	0x3e2e5fc6	0.17028722
70	0x3e72d53d	0.23714156
71	0xbd7ac460	-0.061222434
72	0x3dd5fb3b	0.10448309
73	0x3e523a9a	0.20530167
74	0x3b5d59e5	0.0033775505
75	0xbd89e75c	-0.067335814
76	0x3e57deb5	0.2108105
77	0x3de94f74	0.113921076
78	0x3e081535	0.1328934
79	0x3d8c588a	0.06852825
80	0xbe134e6b	-0.14385383
81	0x3de2c98b	0.110735975
82	0x3e052580	0.13002586
83	0xbe4c6c7d	-0.1996326
84	0x3dcf9ca9	0.101373024
85	0x3d95088b	0.0727702
86	0xbe056587	-0.13027011
87	0xbe1195ce	-0.14217302
88	0x3e3af86e	0.18258831
89	0xbd825ce6	-0.06365375
90	0x3de16ab7	0.11006682
91	0xbd41bde1	-0.047300223
92	0xbe6e7154	-0.23285419
93	0xbd65814f	-0.05603152
94	0x3e593e40	0.21215153
95	0xbdd98739	-0.10621495
96	0xbc46ff84	-0.012145881
97	0x3be0cf9d	0.006860687
98	0xbd2e0726	-0.042487286
99	0x3dc4d4cb	0.096108995
100	0x3dec7171	0.11545075
101	0xbe3f29db	-0.1866831
102	0x3d835586	0.06412797
103	0x3e0307af	0.127959
104	0xbce1ccd5	-0.027563492
105	0xbdd5de32	-0.10442771
106	0x3df90c6f	0.12160575
107	0xbd9513d9	-0.07279176
108	0x3e13eb36	0.14445195
109	0xbe689ac6	-0.22715291
110	0xbd5e76ce	-0.05431252
111	0xbc8ffce4	-0.017576642
112	0xbe0f229e	-0.13978049
113	0xbe198f45	-0.14996059
114	0x3e19955c	0.14998382
115	0xbb941dea	-0.0045201676
116	0x3e06069d	0.1308846
117	0x3dd3ed95	0.103480496
118	0xbd84ac3b	-0.06478163
119	0xbd3409aa	-0.04395453
120	0x3e65f90a	0.22458282
121	0x3c9cf8e6	0.019161653
122	0xbe59e257	-0.21277748
123	0x3dc04bb8	0.09389442
124	0x3e3589a5	0.17728288
125	0xbd14d685	-0.036337394
126	0xbe2fe335	-0.17176516
127	0xbe602fe8	-0.21893275
128	0xbe102333	-0.14075927
129	0x3da8579a	0.08219834
130	0xbcc56a98	-0.02409868
131	0x3de29205	0.11063007
132	0x3e1d7b67	0.15379106
133	0x3d974f99	0.07388229
134	0xbdd7392c	-0.105089515
135	0xbddf78ab	-0.109116875
136	0x3e1b280f	0.15152
137	0x3db2a12b	0.087221466
138	0xbd15a996	-0.036538683
139	0x3d3c5668	0.04598084
140	0xbde5b2cc	-0.112157434
141	0xbd4200d4	-0.04736407
142	0xbdf7ac8b	-0.12093457
143	0x3d6549fb	0.055978756
144	0x3e3539a2	0.17697766
145	0x3e430149	0.19043459
146	0x3de61c1b	0.112358294
147	0xbe304c58	-0.17216623
148	0xbe1d8353	-0.15382127
149	0x3d2b6133	0.041840743
150	0xbaa4f277	-0.0012584467
151	0xbe09796c	-0.13425225
152	0xbdff9f37	-0.1248154
153	0x3ce89b3c	0.028394334
154	0x3de1a464	0.11017683
155	0x3e6e278f	0.23257278
156	0xbdce2baf	-0.10066926
157	0xbdb4f354	-0.08835474
158	0x3d412102	0.04715062
159	0xbdb3dcd9	-0.08782358
160	0xbc9b46e6	-0.018954705
161	0xbe305cb1	-0.17222859
162	0xbc9f2529	-0.019426899
163	0xbde703d7	-0.11280029
164	0x3e186deb	0.1488568
165	0x3e544554	0.20729572
166	0x3e39fcbe	0.1816282
167	0x3e2bb15e	0.16766879
168	0xbe51ec13	-0.20500211
169	0xbc5ff2f1	-0.013668762
170	0xbd1800fd	-0.037110317
171	0xbc103925	-0.008802687
172	0x3d34422f	0.04400843
173	0xbdc74d38	-0.09731525
174	0xbd041685	-0.03224804
175	0x3dc6c4a8	0.09705478
176	0xbd875664	-0.066082746
177	0xbc9dc848	-0.01926054
178	0xbe53faff	-0.20701216
179	0xbe0ad072	-0.13556078
180	0xbdf0e1c1	-0.11761809
181	0x3c93b3dd	0.018030101
182	0xbd24d303	-0.0402403
183	0x3e4816ba	0.1953992
184	0x3e492f15	0.19646867
185	0x3e7b5f58	0.2454809
186	0xbc6afb5f	-0.014342158
187	0xbe3a6f1c	-0.18206447
188	0xbe0e93fb	-0.13923638
189	0xbdc43e5b	-0.09582206
190	0xbe635c16	-0.22203097
191	0xbe4a0da2	-0.19731763
192	0xbe2a374f	-0.16622661
193	0xbd65a24f	-0.056062993
194	0xbe40f8da	-0.1884493
195	0xbe20e9b1	-0.15714146
196	0xbcbe6b68	-0.023244575
197	0x3ccc2aab	0.02492269
198	0x3e406a79	0.18790616
199	0x3d84950e	0.064737424
200	0x3db7e9d6	0.089801475
201	0xbc81d64c	-0.015849255
202	0xbd90db1d	-0.070730425
203	0xbc46c6c3	-0.012132349
204	0x3e274cf8	0.16337955
205	0xbe366010	-0.17810082
206	0xbd5ca771	-0.053870622
207	0x3d32214f	0.043488797
208	0x3e70f7b1	0.23531987
209	0x3e673053	0.22577028
210	0x3dcdc35b	0.10047027
211	0xbcaeecea	-0.021353204
212	0x3e1f3097	0.1554588
213	0x3dc8a6d9	0.09797449
214	0x3dd4415a	0.10364027
215	0x3b8f27da	0.0043687643
216	0x3e499210	0.19684625
217	0x3e4c84a7	0.19972478
218	0xbdc319c5	-0.095263995
219	0xbe3d3c2e	-0.18479988
220	0x3d6eb234	0.058275416
221	0x3dd1d949	0.10246522
222	0xbe697956	-0.22800192
223	0xbe1d0fa8	-0.15338004
224	0x3dd426fb	0.103589974
225	0x3e4e2b81	0.20133783
226	0x3d5e7ab1	0.054316226
227	0xbdf0ce63	-0.11758115
228	0xbb4d4dae	-0.0031326818
229	0x3c404887	0.011736042
230	0x3e4aaf40	0.19793415
231	0x3d86adfd	0.065761544
232	0xbc7b7ca5	-0.015349542
233	0xbd615942	-0.055016764
234	0xbbf89d60	-0.00758712
235	0x3ce1a80b	0.02754595
236	0x3dcb4560	0.099253416
237	0xbe88e083	-0.2673379
238	0x3e274dd8	0.16338289
239	0x3e415d94	0.18883353
240	0xbe08d37b	-0.13361923
241	0xbdebcbc9	-0.11513478
242	0x3dcd958a	0.10038288
243	0xbe146c65	-0.14494474
244	0x3db23da1	0.08703161
245	0x3cee2d6e	0.029074397
246	0x3d508ef0	0.050917566
247	0xbe5589b2	-0.20853308
248	0xbd614029	-0.05499283
249	0x3e4afb88	0.19822514
250	0xbe38542f	-0.18000863
251	0xbe1ac7e1	-0.1511531
252	0xbe7e3143	-0.2482348
253	0xbdfd28f0	-0.12361324
254	0x3d6ca5b6	0.05777522
255	0x3dde20dc	0.10846111

conv1.0.bias f4 [28]
0	0xbd11e22a	-0.035616077
1	0x3d41bd5c	0.047299728
2	0xbe28a9fb	-0.16471092
3	0x3cad4877	0.021152718
4	0x3d0abc31	0.03387088
5	0xbe0937d9	-0.1340021
6	0x3d5a730b	0.05333237
7	0x3d90e6b0	0.0707525
8	0xbcdf8f16	-0.027289908
9	0xbe32f431	-0.17475964
10	0xbde4aa93	-0.11165347
11	0x3e1304c7	0.14357291
12	0x3ca65e86	0.020308744
13	0xbe34b1c9	-0.17645945
14	0xbe165791	-0.14681841
15	0xbcca77ff	-0.024715422
16	0x3e0d0db5	0.1377476
17	0x3d92c1d9	0.0716588
18	0x3bf078e7	0.0073386314
19	0x3cc7d955	0.024395624
20	0xbdfe1f42	-0.12408306
21	0x3e120575	0.14259894
22	0xbd1e5533	-0.03865547
23	0x3d6ef6af	0.058340725
24	0x3e3b2bd7	0.18278442
25	0x3e33ce89	0.17559256
26	0xbdb0167d	-0.08598039
27	0x3dbe7494	0.09299579

conv1.1.weight f4 [28]
0	0x3eae61fb	0.34059128
1	0x3f398f38	0.7248416
2	0x3eb4a3b2	0.3528114
3	0x3ee5a60b	0.44853243
4	0x3f02962b	0.5101039
5	0x3ee11eb6	0.43968743
6	0x3f31a61a	0.69394076
7	0x3f350ffd	0.7072752
8	0x3e8a1663	0.26970205
9	0x3e5954d4	0.21223766
10	0x3f45af69	0.7722078
11	0x3eb20a3e	0.3477344
12	0x3e77eb24	0.24210793
13	0x3f2ed9cd	0.6830109
14	0x3ef310d1	0.47473767
15	0x3ec688b8	0.38776183
16	0x3f3be87f	0.73401636
17	0x3e33c0fb	0.17554085
18	0x3f4163ad	0.7554272
19	0x3e9537f2	0.29144245
20	0x3eb8777b	0.36028656
21	0x3ea7082f	0.3262343
22	0x3f3c93d5	0.73663074
23	0x3e24cb5b	0.16093199
24	0x3eba6dff	0.36412045
25	0x3ee2808b	0.44238696
26	0x3f1395da	0.5765053
27	0x3e6faea4	0.23406464

conv1.1.bias f4 [28]
0	0xbd61a38c	-0.05508761
1	0xbad115a3	-0.0015951883
2	0xbe605d01	-0.21910478
3	0x3ce89577	0.028391583
4	0x3de89f65	0.11358527
5	0x3d735c39	0.059414122
6	0x3e09f68d	0.13472958
7	0xbdde568c	-0.10856351
8	0xbe03d27d	-0.12873264
9	0xbe5a3cc7	-0.21312247
10	0x3d195dd2	0.03744299
11	0x3db8c67b	0.09022232
12	0xbb9e51ed	-0.0048315437
13	0xbc919dcf	-0.017775444
14	0xbebabb0f	-0.3647084
15	0xbdb92d1c	-0.09041807
16	0x3cb22587	0.02174641
17	0x3e2bc13c	0.16772932
18	0x3da83770	0.08213699
19	0x3d9f6422	0.07782771
20	0xbd9cbbfd	-0.076530434
21	0xbd0cfd7d	-0.034421433
22	0x3deb8f64	0.11501959
23	0x3dd4b7a6	0.10386591
24	0x3db4178c	0.08793554
25	0xbe96f7c4	-0.29485905
26	0xbd8a8268	-0.06763154
27	0x3d942a3f	0.0723462

conv1.1.running_mean f4 [28]
0	0xbcc3bd5e	-0.023894008
1	0x3db4e0f7	0.08831971
2	0xbe7d9d90	-0.24767137
3	0x3c9b3e77	0.018950684
4	0x3d282ef0	0.041060388
5	0xbdfe7e1a	-0.12426396
6	0x3d8b71e3	0.068088315
7	0xbd95dd02	-0.073175445
8	0xbd7a0dc7	-0.061048295
9	0xbe56d207	-0.20978557
10	0xbdc865d2	-0.09785046
11	0x3e04a706	0.1295434
12	0xbb9c4634	-0.004769111
13	0xbe32babc	-0.17454046
14	0xbd9b0a47	-0.075703196
15	0xbd2acb04	-0.041697517
16	0x3e16c2e3	0.14722781
17	0x3d9f97c8	0.07792622
18	0xbd65434d	-0.055972386
19	0x3dd9624e	0.10614453
20	0xbda31566	-0.07963066
21	0x3e080a29	0.13285126
22	0xbd38af52	-0.045089073
23	0x3d74b65b	0.05974422
24	0x3e355bbe	0.17710778
25	0x3e189cbb	0.14903538
26	0xbe28fecb	-0.16503446
27	0x3dd4c5c2	0.10389282

conv1.1.running_var f4 [28]
0	0x3d12ee51	0.035871807
1	0x3cc93a72	0.024564002
2	0x3d26bd46	0.04070785
3	0x3cb019a1	0.021496596
4	0x3cd90e38	0.026496038
5	0x3cb25f0b	0.021773836
6	0x3c582ee1	0.013194771
7	0x3cebb807	0.028774275
8	0x3cda7eec	0.02667185
9	0x3ca6cf5c	0.020362549
10	0x3d07e77b	0.03317974
11	0x3c998318	0.018739268
12	0x3bf5c347	0.0075000855
13	0x3cbd88f5	0.023136595
14	0x3ca8a163	0.020584768
15	0x3c450a40	0.01202637
16	0x3d159421	0.03651822
17	0x3dc788bd	0.09742878
18	0x3c17f8cd	0.009275627
19	0x3d0b42f0	0.033999383
20	0x3c5950d4	0.0132639
21	0x3c365489	0.011128553
22	0x3d6aef74	0.057357267
23	0x3bfc92b8	0.00770792
24	0x3c496f21	0.012294562
25	0x3cdf65d9	0.027270244
26	0x3e28598b	0.16440408
27	0x3d0f6b40	0.03501439

conv1.4.weight f4 [48, 28, 2, 2]
0	0xbdb9e200	-0.09076309
1	0xbd621991	-0.055200163
2	0x3d0e2979	0.03470752
3	0x3d13cdac	0.036084816
4	0xbd666d85	-0.05625679
5	0xbd9ceab9	-0.07661957
6	0xbdc6af6e	-0.09701429
7	0xbdf1c23e	-0.11804627
8	0xbe0341d2	-0.12818077
9	0xbb9ad296	-0.004724811
10	0x3d2e8ee6	0.042616747
11	0x3dbe3034	0.09286538
12	0xbc035b20	-0.008017331
13	0xbccea0b0	-0.025223106
14	0xbe19f63b	-0.15035336
15	0x3da0c62c	0.07850298
16	0xbe0670db	-0.13128988
17	0xbdf8fd7d	-0.12157724
18	0xbe32160c	-0.17391223
19	0xbe0cf3c4	-0.13764864
20	0x3de6ad6d	0.11263547
21	0xbe309465	-0.17244108
22	0xbdd8e319	-0.105901904
23	0xbe1b0674	-0.1513918
24	0x3dc4b151	0.09604133
25	0xbd971b39	-0.07378239
26	0x3dbf6a49	0.09346444
27	0xbda2785d	-0.07933114
28	0xba0b0aa4	-0.0005304015
29	0xbe0ee672	-0.13955095
30	0xbdf26452	-0.11835541
31	0xbb8db188	-0.004324142
32	0x3c06763e	0.008206902
33	0xbcb2e8fc	-0.021839611
34	0xbe185e50	-0.14879727
35	0xbe8eaa5e	-0.27864355
36	0xbd4a2229	-0.049348984
37	0xbc733ab8	-0.014845543
38	0xbdc37555	-0.09543864
39	0xbd90d99a	-0.07072754
40	0xbc9b6c8b	-0.018972656
41	0x3da30535	0.079599775
42	0x3da2a07f	0.079407685
43	0x3e5e90e2	0.21734956
44	0x3d9f3b9d	0.07775042
45	0xbc8b89ad	-0.017033422
46	0xbd8376e7	-0.06419163
47	0xbd1e0e75	-0.038588006
48	0xbe0a31f6	-0.13495621
49	0xbdb0022e	-0.08594166
50	0xbdf29113	-0.11844077
51	0x3dae10f8	0.0849933
52	0x3d7ac636	0.061224185
53	0xbe5a5541	-0.21321584
54	0xbcad3157	-0.021141691
55	0xbd4821e9	-0.048860464
56	0x3d281067	0.041031267
57	0xbe1fd33c	-0.15607923
58	0xbd858a91	-0.0652057
59	0xbe0ad26d	-0.13556834
60	0x3d7149c8	0.058908254
61	0xbe29e87b	-0.1659259
62	0xbdc71c7f	-0.09722232
63	0xbd034e6e	-0.03205722
64	0x3d68dec6	0.05685308
65	0x3d662f5b	0.056197505
66	0x3d3e2d39	0.046429846
67	0x3dcfb52a	0.10141976
68	0x3cdc1299	0.026864337
69	0xbe1698cb	-0.14706723
70	0x3d8f8a80	0.07008839
71	0x3ce09c77	0.027418358
72	0xbdbc4cf3	-0.091943644
73	0x3c383259	0.011242473
74	0xbd1c1560	-0.038106322
75	0x3cd4de35	0.025984863
76	0xbda63181	-0.08114911
77	0xbd17571a	-0.0369483
78	0x3d296bfb	0.041362744
79	0x3d3aa31a	0.045565702
80	0xbdd84ceb	-0.10561546
81	0x3bde51a0	0.006784633
82	0xbbde8f7e	-0.006792008
83	0x3e07244c	0.1319744
84	0xbb03be86	-0.0020102574
85	0xbc87760b	-0.01653578
86	0x3d3dc248	0.04632786
87	0x3e01ac37	0.12663351
88	0xbca8eef8	-0.020621762
89	0x3d7cf052	0.061752625
90	0x3d7a47d1	0.061103646
91	0x3d57d1ec	0.05269043
92	0x3d77ebef	0.06052774
93	0x3dd151c5	0.102206744
94	0x3ca97cfa	0.020689476
95	0x3da87155	0.08224741
96	0x3e895632	0.26823574
97	0xbe08bad3	-0.13352518
98	0x3b855c9f	0.004069879
99	0xbe02e00a	-0.12780777
100	0xbd523d3e	-0.051327936
101	0xbda684c2	-0.0813079
102	0xbdaf66a4	-0.08564499
103	0xbdcfb20f	-0.10141384
104	0x3c89e0ef	0.01683089
105	0xbd8b1dff	-0.06792831
106	0x3cb48ca9	0.022039728
107	0xbcafea6c	-0.021474086
108	0x3a12bdf9	0.0005597766
109	0x3d5d56db	0.05403791
110	0xbdfe3ba1	-0.12413717
111	0x3e46c58d	0.19411297
112	0x3dfc47dc	0.123183936
113	0x3c52c1cc	0.012863588
114	0xbd687ccb	-0.056759637
115	0xbd844f75	-0.06460468
116	0x3d8a1fbd	0.06744335
117	0x3cb125bc	0.021624438
118	0xbb7fca19	-0.0039030372
119	0x3d33ac73	0.043865632
120	0x3db1ccff	0.08681678
121	0x3d6fb4e8	0.058522135
122	0x3d912563	0.07087209
123	0xbdc831ff	-0.09775161
124	0x3bfe3a87	0.007758442
125	0x3df37bbf	0.11888837
126	0xbd8bc0df	-0.068238966
127	0xbd1c2e32	-0.038129993
128	0x3c3244df	0.010880678
129	0x3db7481e	0.08949302
130	0x3d07757a	0.03307102
131	0x3b61f89e	0.0034480463
132	0xbc9189f3	-0.017765975
133	0xbd8c336d	-0.06845746
134	0xbd74ec57	-0.059795704
135	0x3b700f0b	0.003663006
136	0xbd09b18d	-0.03361659
137	0x3c1808c7	0.009279436
138	0x3dad382a	0.08457978
139	0x3e1d7216	0.15375552
140	0x3d73c3ef	0.05951303
141	0xbdceb9df	-0.10094046
142	0xbda2e96e	-0.079546794
143	0xbcd82865	-0.02638645
144	0xbc84da9c	-0.016217522
145	0xbd6c0cc4	-0.05762936
146	0xbe18806c	-0.14892739
147	0xbd347a43	-0.04406191
148	0xbe778fe0	-0.24175978
149	0xbbe7795e	-0.0070640286
150	0xbdde2844	-0.10847524
151	0xbd98f0f4	-0.07467833
152	0xbdcf679e	-0.10127185
153	0xbd04f898	-0.03246364
154	0x3ddeab1b	0.108724795
155	0x3e46ca88	0.19413197
156	0x3db333a4	0.08750084
157	0x3a1f1af6	0.0006069386
158	0xbd54c24c	-0.05194311
159	0x3cf55181	0.02994609
160	0xbced3938	-0.028957948
161	0xbe40a3b6	-0.18812451
162	0xbd314434	-0.043277934
163	0xbde0391c	-0.10948393
164	0x3e2067a3	0.15664534
165	0x3daa58ff	0.08317756
166	0xbdaec651	-0.085339196
167	0xbe4af4df	-0.19819973
168	0x3dc5c36e	0.09656416
169	0x3d75bba7	0.059993412
170	0xbc324749	-0.0108812535
171	0x3df6c986	0.12050156
172	0xbbf01bf0	-0.007327549
173	0xbbf24126	-0.00739302
174	0xbd9543c1	-0.07288314
175	0x3beed99d	0.007289125
176	0x3e81a9de	0.2532491
177	0x3cfdbd51	0.030974062
178	0x3ddc7265	0.107640065
179	0x3c4eae9f	0.012614875
180	0xbdb62552	-0.08893837
181	0xb8d44e5e	-0.00010123545
182	0xbe2054be	-0.15657327
183	0xbdc738a5	-0.09727601
184	0xbe26ec2b	-0.16301028
185	0xbd8d1aea	-0.06889899
186	0x3c38979f	0.011266618
187	0xbdba405c	-0.09094307
188	0x3dad32e2	0.08456971
189	0x3de6d2b7	0.112706594
190	0x3d971cfe	0.07378577
191	0x3d359c89	0.044338737
192	0x3d04604e	0.032318406
193	0x3d21b022	0.039474614
194	0x3dda5ad8	0.10661858
195	0x3e1d269b	0.15346758
196	0xbe0dfd5d	-0.13866182
197	0xbdf1701a	-0.1178896
198	0xbdd7ad09	-0.10531051
199	0x3d8cd3df	0.06876349
200	0x3c023b5c	0.007948723
201	0x3ce430fb	0.027855387
202	0x3df39d12	0.11895193
203	0x3d9290e5	0.07156543
204	0x3dc88743	0.09791424
205	0x3b96d951	0.004603543
206	0xbc46115e	-0.012089102
207	0xbe0d80f1	-0.13818718
208	0xbdf2e630	-0.11860311
209	0xbde6bef5	-0.11266891
210	0xbe5298db	-0.20566122
211	0x3dcac94b	0.09901675
212	0xbd190540	-0.037358522
213	0xbd5ff8c6	-0.05468061
214	0xbd92081c	-0.07130453
215	0xbd9cdc69	-0.076592274
216	0xbe041fb0	-0.12902713
217	0x3d6beac3	0.057596933
218	0xbd69a525	-0.05704226
219	0xbe3bfb53	-0.18357591
220	0x3e95fd19	0.2929466
221	0x3d8f9df4	0.07012549
222	0xbd515d97	-0.051114645
223	0x3c2826d0	0.01026316
224	0xbcd430da	-0.0259022
225	0x3dca448a	0.09876354
226	0xbc4465bf	-0.011987149
227	0x3e5ec7ec	0.21755952
228	0xbcbf3c73	-0.023344254
229	0xbdf90812	-0.121597424
230	0xbe1288e7	-0.14310037
231	0xbe024401	-0.12721254
232	0x3bfe391a	0.007758272
233	0xbe0761b1	-0.1322086
234	0xbb3cd450	-0.0028813072
235	0x3e1f104a	0.15533558
236	0x3dc7923d	0.097446896
237	0x3dae4432	0.08509101
238	0xbe28c486	-0.16481218
239	0xbe4a50ca	-0.19757381
240	0xbd81169d	-0.06303141
241	0xbd07664e	-0.03305655
242	0xbd2c5d6f	-0.042081293
243	0xbc5cb0ab	-0.013469855
244	0xbe1b6c98	-0.15178144
245	0xbe19678b	-0.14980905
246	0xbdedd1e2	-0.116122976
247	0xbe4ecded	-0.20195742
248	0xbdb9ffba	-0.09081979
249	0xbe0b7ac8	-0.13621056
250	0xbc3ef492	-0.01165499
251	0xbd2d6c96	-0.042339884
252	0xbe28c1f2	-0.16480234
253	0xbd096606	-0.033544563
254	0x3e0ccab3	0.13749199
255	0x3c50abcc	0.012736272

conv1.4.bias f4 [48]
0	0xbd8a8022	-0.06762721
1	0x3cd33921	0.025784077
2	0x3d6037f9	0.05474088
3	0x3cdb10de	0.026741441
4	0x3c86e5dc	0.016467027
5	0xbd8800bf	-0.06640767
6	0xbd5ce89c	-0.05393277
7	0xbd7126af	-0.058874782
8	0xbd0e6b18	-0.0347701
9	0xbd86c576	-0.065806314
10	0x3da5e98d	0.08101187
11	0xbdbee9bc	-0.09321925
12	0x3d626fb1	0.0552823
13	0xbd93e351	-0.072210915
14	0xbc405498	-0.011738919
15	0x3d569520	0.05238831
16	0xbbf61229	-0.007509489
17	0x3d6f74ff	0.058461186
18	0xbc97fa19	-0.018551873
19	0x3d153888	0.036430866
20	0x3da3d5ac	0.07999739
21	0x3cb0e99a	0.021595765
22	0x3db84378	0.08997244
23	0x3d8ddcbb	0.069268666
24	0xbd7a0124	-0.061036244
25	0x3bef1ead	0.007297358
26	0xbda1aa4d	-0.078938104
27	0x3d952245	0.07281927
28	0xbd19a1cf	-0.03750783
29	0x3cc701a4	0.024292774
30	0x3d4d673e	0.050147288
31	0x3d37927f	0.044817444
32	0xbd32890d	-0.043587733
33	0xbdad5153	-0.08462777
34	0xbd933b21	-0.07189012
35	0x3d7349d5	0.059396584
36	0x3c35dfa4	0.011100683
37	0xbc81249a	-0.015764523
38	0x3d375c7a	0.044765927
39	0xbbd054cf	-0.006357766
40	0xbdea1e43	-0.11431553
41	0x3c92229c	0.017838769
42	0xbd9105e4	-0.07081202
43	0xbda87850	-0.08226073
44	0xbce7db29	-0.028302746
45	0x3d247800	0.040153503
46	0x3c9ba323	0.018998688
47	0xbd7ddb84	-0.061976925

conv1.5.weight f4 [48]
0	0x3f48d13f	0.78444284
1	0x3e35fe22	0.17772725
2	0x3e81873d	0.2529849
3	0x3edb3f05	0.42821518
4	0x3f303c0e	0.68841636
5	0x3ee1ffea	0.4414056
6	0x3f287899	0.6580902
7	0x3ec79487	0.38980505
8	0x3f0e39a1	0.55556685
9	0x3f4aefc7	0.7927212
10	0x3eba490a	0.3638385
11	0x3f14c8bb	0.5811879
12	0x3f2c0ca9	0.6720682
13	0x3f216818	0.6304946
14	0x3f1cd081	0.6125565
15	0x3f5fb838	0.8739047
16	0x3f08f80f	0.5350351
17	0x3eecec77	0.46274158
18	0x3f7353a7	0.9504952
19	0x3eb522be	0.3537807
20	0x3f054207	0.52053875
21	0x3f0ddcc2	0.55414975
22	0x3e6c875f	0.23098515
23	0x3f2b40c8	0.66895723
24	0x3e944f75	0.2896687
25	0x3f2781f8	0.6543269
26	0x3f191c6e	0.59809005
27	0x3f21a0ac	0.6313579
28	0x3ef3e913	0.4763876
29	0x3f4fb131	0.8112975
30	0x3edab11a	0.42713243
31	0x3f4f7341	0.8103524
32	0x3f503852	0.8133594
33	0x3f1bb846	0.60828054
34	0x3f66b535	0.9012025
35	0x3f63f92a	0.8905207
36	0x3f329e17	0.69772476
37	0x3eb2aa3e	0.3489551
38	0x3ed8cd2b	0.4234403
39	0x3eada9bc	0.3391856
40	0x3ef546f2	0.4790569
41	0x3f53ffbf	0.8281211
42	0x3f00e95b	0.5035607
43	0x3e669af3	0.22520046
44	0x3f0e6b55	0.55632526
45	0x3f290634	0.6602509
46	0x3f591d7b	0.8481061
47	0x3f5334a1	0.8250218

conv1.5.bias f4 [48]
0	0x3d76ff00	0.06030178
1	0x3d07d588	0.033162624
2	0xbb092dbb	-0.0020931798
3	0x3e0855c4	0.13313967
4	0xbd2425d2	-0.04007513
5	0x3e047a46	0.12937269
6	0xbe2c73ec	-0.16841096
7	0x3cc7ac36	0.024374109
8	0xbb454ef7	-0.0030106881
9	0xbe7b89a8	-0.2456423
10	0x3e38543f	0.18000887
11	0xbdc0ebcb	-0.09419974
12	0x3d493932	0.04912681
13	0x3da53705	0.08067135
14	0x3de23b76	0.110464975
15	0x3dc49f1e	0.09600662
16	0xbd0dfb8a	-0.034663714
17	0x3e3de3a2	0.18543866
18	0x3d7b8a44	0.061411157
19	0x3e141a50	0.14463162
20	0xbdfba114	-0.122865826
21	0x3e1d8c05	0.15385444
22	0x3e55a535	0.20863803
23	0x3e3984ac	0.18117017
24	0x3df3344c	0.11875209
25	0xbe04ecc0	-0.12980938
26	0xbc3fa6ff	-0.01169753
27	0x3e7174e4	0.23579746
28	0xbdb578f6	-0.08860962
29	0xbdf02a2c	-0.11726794
30	0x3dbbdd54	0.09173074
31	0xbdd2643d	-0.10273025
32	0xbe09902a	-0.134339
33	0x3eab934e	0.33510822
34	0xbda271e6	-0.07931881
35	0xbdec2eb0	-0.115323424
36	0x3e4b230e	0.19837591
37	0x3e7d0f01	0.24712755
38	0x3da302d9	0.079595275
39	0x3e11f71a	0.14254418
40	0x3cd69ca0	0.026197731
41	0xbc8d48d2	-0.017246637
42	0xbe1a398c	-0.15061015
43	0xbcddcc6e	-0.027075019
44	0xbd9f8a4e	-0.077900514
45	0x3da799c9	0.08183629
46	0x3d113be7	0.035457518
47	0xbdbd6376	-0.09247486

conv1.5.running_mean f4 [48]
0	0xbf086270	-0.53275204
1	0x3e5dfe2e	0.21678993
2	0xbe551699	-0.20809402
3	0xbf1d0458	-0.61334753
4	0xbeeb4c8a	-0.45956832
5	0xbeef324c	-0.4671806
6	0xbf931e07	-1.1493539
7	0xbf3a749a	-0.7283417
8	0xbf58c02d	-0.84668237
9	0xbfe0266c	-1.7511725
10	0xbbcbe0c2	-0.0062218616
11	0xbf2ea71a	-0.68223727
12	0xbf196227	-0.59915394
13	0x3d3d4b77	0.046214547
14	0x3c9539b6	0.018215995
15	0xbe1ba31a	-0.15198937
16	0xbf6d8fff	-0.92797846
17	0xbf525853	-0.8216602
18	0xbf0da5cb	-0.55331105
19	0xbf0b6755	-0.5445455
20	0xbf31d643	-0.6946756
21	0xbe9d9af5	-0.30782285
22	0x3e32279f	0.17397927
23	0xbf6dd053	-0.92896
24	0x3dba2fd0	0.09091151
25	0x3d67c630	0.05658549
26	0xbefdbfd7	-0.49560425
27	0x3f09ccbe	0.53828037
28	0xbf1abb14	-0.6044171
29	0xbfa03d21	-1.2518655
30	0xbf5f47db	-0.8721902
31	0xbf8f24a3	-1.1183056
32	0xbe442fb1	-0.19158818
33	0x3f6b5aa2	0.9193517
34	0xbeffbcb9	-0.4994867
35	0xbf29659a	-0.66170657
36	0xbe2f5c0c	-0.17124957
37	0xbfb04815	-1.3771998
38	0xbe8f9ee3	-0.28050908
39	0xbf1f089f	-0.6212253
40	0xbf111bec	-0.5668323
41	0xbfa1b44f	-1.2633151
42	0xbfc6d330	-1.5533199
43	0x3e0c705e	0.1371474
44	0xbf66f8fa	-0.9022366
45	0xbee68ae1	-0.4502783
46	0xbf0365e5	-0.51327354
47	0xbe9bdbe1	-0.30441192

conv1.5.running_var f4 [48]
0	0x3e792a0b	0.24332444
1	0x3eba3c21	0.36374
2	0x3ec2f151	0.38074735
3	0x3ed09461	0.40738204
4	0x3e903652	0.28166443
5	0x3e902f2a	0.28160983
6	0x3f2e14e0	0.680006
7	0x3e8de036	0.27710122
8	0x3eb698c0	0.35663414
9	0x3f9a77cb	1.2067808
10	0x3e824512	0.2544332
11	0x3efd068a	0.4941905
12	0x3ec13544	0.3773595
13	0x3ed6a617	0.41923591
14	0x3eeabc45	0.45846763
15	0x3eb42703	0.35186014
16	0x3f4cef6f	0.80052847
17	0x3ef6cfa5	0.48205295
18	0x3eab45b4	0.33451617
19	0x3ef42be7	0.47689745
20	0x3ebed0ee	0.37268776
21	0x3e9b0317	0.30275795
22	0x3e960ac5	0.29305092
23	0x3eee8226	0.4658367
24	0x3ee58ca7	0.44833872
25	0x3f1bd6b8	0.6087451
26	0x3ec6cd0a	0.38828307
27	0x3f106f76	0.56420076
28	0x3e8ba66d	0.2727541
29	0x3f68fce3	0.91010875
30	0x3ed1e119	0.40992048
31	0x3f326fb9	0.69701725
32	0x3ec6247b	0.38699707
33	0x3efb60e8	0.4909737
34	0x3eda71d6	0.42664975
35	0x3ef2702f	0.47351214
36	0x3e80470c	0.25054204
37	0x3f3985af	0.7246961
38	0x3ecd5c98	0.40109706
39	0x3ec30a8e	0.3809399
40	0x3e7e927a	0.24860564
41	0x3f389deb	0.72115964
42	0x3f9f6a97	1.2454404
43	0x3ec712b3	0.38881454
44	0x3eea7a69	0.45796517
45	0x3ebbe628	0.36699033
46	0x3f1486b9	0.5801807
47	0x3eba0040	0.36328316

conv1.8.weight f4 [64, 48, 2, 2]
0	0xbdb657e2	-0.08903481
1	0xbd515982	-0.051110752
2	0x3d7af033	0.061264228
3	0x3e58554c	0.21126288
4	0x3c1bbaa6	0.00950495
5	0xbd8c7ec1	-0.06860114
6	0xbd03cfde	-0.03218066
7	0xbd9709c5	-0.0737491
8	0xbe531959	-0.20615138
9	0xbb8bba02	-0.004264117
10	0xbe41aa1e	-0.18912551
11	0x3eafa665	0.34306636
12	0x3dbb606a	0.09149249
13	0xbd48b7ce	-0.049003415
14	0x3d1f86e5	0.038947005
15	0x3c2a70f2	0.010402905
16	0x3b481860	0.0030532107
17	0xbcf5a86d	-0.029987538
18	0x3db3d071	0.087799914
19	0xbc143cb3	-0.009047675
20	0xb99d3442	-0.0002998431
21	0xbc8c870f	-0.017154245
22	0x3e0ac6dd	0.13552423
23	0xbbea5da3	-0.0071522756
24	0xbe046f31	-0.12933041
25	0xbe0e2d4b	-0.13884465
26	0xbe03d53a	-0.12874308
27	0xbe260d23	-0.16215949
28	0x3ddeb697	0.1087467
29	0xbe3d53e3	-0.18489031
30	0x3e7b2826	0.24527034
31	0xbe33e055	-0.17566045
32	0xbe42e9c0	-0.19034481
33	0x3dce4a77	0.10072797
34	0xbe05a2dc	-0.13050407
35	0x3ccb5022	0.024818484
36	0xbc47cf22	-0.01219538
37	0xbdd0f8fa	-0.102037385
38	0xbd396a67	-0.04526749
39	0xbd42485c	-0.04743229
40	0x3b8a37c3	0.004218073
41	0xbde90b87	-0.11379152
42	0xbd674e37	-0.056471076
43	0xbe121d34	-0.14268953
44	0xbd309b1a	-0.043116666
45	0xbcd98a34	-0.026555158
46	0xbcee306f	-0.02907583
47	0x3e1c6585	0.15273102
48	0xbdd2d852	-0.10295166
49	0x3d253a8e	0.040339045
50	0xbd8b717f	-0.06808757
51	0x3c74520d	0.014912141
52	0x3dcfb92f	0.10142743
53	0x3d45d2bc	0.048296675
54	0x3d12e859	0.035866115
55	0x3d07a173	0.033112954
56	0xbe09343e	-0.13398835
57	0xbdd9f67d	-0.10642717
58	0x3cc0497e	0.023472544
59	0x3e1e31a3	0.15448622
60	0xbd450c42	-0.048107393
61	0x3d33d36b	0.043902796
62	0xbd4d83f3	-0.050174665
63	0xbcc98c79	-0.024603115
64	0xbe02e439	-0.12782373
65	0xbc88cbf9	-0.016698824
66	0xbd87fb2c	-0.06639704
67	0xbc1a1169	-0.009403565
68	0xbd768473	-0.060184907
69	0x3c703e50	0.014663294
70	0xbe44a12c	-0.19202107
71	0xbde924c8	-0.113839686
72	0x3e023361	0.12714912
73	0xbd5fbc64	-0.054623023
74	0x3e5fcd3d	0.21855636
75	0x3dd61d9c	0.10454866
76	0xbe1ac582	-0.15114406
77	0xbd9c3ede	-0.076291785
78	0xbe3e376c	-0.1857583
79	0xbd333d26	-0.043759488
80	0x3d45c541	0.04828382
81	0xbd0a4a4e	-0.03376227
82	0xbcecd61d	-0.02891069
83	0xbda1707d	-0.078827836
84	0x3dd7faac	0.10545859
85	0x3d69c31b	0.057070833
86	0x3e216c0f	0.15763877
87	0xbbfe91a2	-0.0077688256
88	0x3e069305	0.13142021
89	0x3b455f8a	0.003011676
90	0xbb884ff9	-0.004159924
91	0xbde10e44	-0.10989049
92	0x3e37ee69	0.1796204
93	0x3dbcada2	0.09212805
94	0x3d02b51c	0.031911
95	0x3dd676d3	0.10471883
96	0xbe7f612f	-0.24939416
97	0x3d4767e2	0.048683055
98	0xbdfaab9b	-0.122397624
99	0x3dbf0be9	0.093284436
100	0xbdfceb97	-0.12349623
101	0x3d199d8a	0.037503757
102	0xbd7019e9	-0.05861846
103	0x3d3735f1	0.044729177
104	0xbe14bd4b	-0.14525335
105	0x3c92f7a0	0.017940342
106	0xbd97d1b7	-0.07413047
107	0x3d977768	0.07395822
108	0xbd20f25e	-0.03929364
109	0xbda5b007	-0.08090215
110	0xbbbb4ccb	-0.0057159415
111	0x3d73a837	0.059486594
112	0x3d882117	0.066469364
113	0xbb75d005	-0.0037508023
114	0x3d035058	0.032059044
115	0xbdaf6ad7	-0.085653
116	0x3d769751	0.0602029
117	0x3dfbe54d	0.12299595
118	0xbd92dcc2	-0.071710125
119	0xbd7e27fe	-0.06204986
120	0x3e5fcf49	0.21856417
121	0x3a7aa889	0.0009561857
122	0x3d9a2726	0.07526998
123	0xbd17e15d	-0.037080158
124	0x3de1ede2	0.11031701
125	0x3dda9719	0.10673351
126	0xbd35e929	-0.044411812
127	0xbc982bb4	-0.018575527
128	0xbb63975e	-0.0034727673
129	0x3d0460c7	0.032318857
130	0xbd866889	-0.06562907
131	0x3b702a03	0.0036646135
132	0xbd53e665	-0.051733393
133	0xbd62673a	-0.055274226
134	0xbdd0124d	-0.101597406
135	0xbdab5354	-0.08365503
136	0xbd4268b7	-0.047463145
137	0x3da1fa27	0.07909041
138	0xbd4674ca	-0.048451222
139	0x3dcec6f7	0.10096543
140	0x3d09c6c1	0.033636812
141	0x3cd0bc86	0.02548052
142	0xbd080fce	-0.033218198
143	0xbd69e095	-0.057098944
144	0x3d8180d0	0.06323397
145	0x3d90eb39	0.07076115
146	0x3d0b3d04	0.033993736
147	0xbd42f2bc	-0.04759477
148	0x3e65775c	0.22408813
149	0x3db159c0	0.086596966
150	0x3d4a4914	0.0493861
151	0xbe075c54	-0.13218814
152	0xbe2bd4cb	-0.16780393
153	0xbe0198cc	-0.12655944
154	0x3a038932	0.0005017697
155	0xbda731fb	-0.0816383
156	0x3d538d28	0.05164829
157	0xbd8257d5	-0.06364409
158	0x3cc03d5a	0.023466755
159	0xbe9aa16d	-0.30201283
160	0x3d95505e	0.072907194
161	0x3dc2c254	0.095097214
162	0x3d79894c	0.060921952
163	0xbe05f291	-0.13080813
164	0x3d152ca3	0.036419522
165	0xbacee5d2	-0.0015785045
166	0x3daf3590	0.08555138
167	0x3da533e8	0.08066541
168	0x3da741ee	0.08166872
169	0x3d2c5a30	0.042078197
170	0xbcd11b5a	-0.025525738
171	0x3d5dabae	0.054118805
172	0x3db88cdc	0.09011242
173	0x3e085c5c	0.13316482
174	0xbd519ef1	-0.05117697
175	0xbbba517a	-0.0056859823
176	0x3d121a24	0.03566946
177	0x3b8095d9	0.003924113
178	0x3de0a547	0.10969024
179	0xbd393687	-0.045218017
180	0x3d35dab7	0.044398036
181	0xbb8ff0a5	-0.0043927007
182	0xbd17cfc5	-0.03706338
183	0xbd6a4cdb	-0.0572022
184	0xbde38c33	-0.11110725
185	0x3e20f18d	0.15717144
186	0x3d2a4c84	0.041576877
187	0x3dbe8ff3	0.093048
188	0xbd89efef	-0.06735217
189	0xbd8f627c	-0.07001206
190	0xbdd38ec0	-0.10329962
191	0x3bda6e09	0.0066659492
192	0xbdb3d0e0	-0.08780074
193	0xbe17548f	-0.1477835
194	0xbd3fd49f	-0.04683363
195	0xbdbb9952	-0.09160103
196	0xbdea58f9	-0.114427514
197	0xbe3faeb6	-0.1871899
198	0x3df223ef	0.1182326
199	0xbd332b34	-0.043742374
200	0x3db24ad9	0.08705682
201	0xbbccd172	-0.0062505538
202	0xbd8091c7	-0.06277805
203	0xbdc2fe8a	-0.09521206
204	0x3d8c4466	0.068489835
205	0x3beaf095	0.007169793
206	0x3e14b470	0.14521956
207	0xbde7875b	-0.11305114
208	0x3d2c0eab	0.042006176
209	0xbdbc5b7b	-0.09197136
210	0x3d6098aa	0.05483309
211	0xbd2a04fa	-0.041508652
212	0xbcaccb0c	-0.021092914
213	0x3e265dfd	0.16246791
214	0xbd6470c9	-0.055771623
215	0xbd711a23	-0.058862817
216	0xbd0faff0	-0.035079896
217	0x3b5e9886	0.0033965423
218	0xbd23682a	-0.03989426
219	0xbb9203d6	-0.0044560237
220	0x3e0913b3	0.13386421
221	0x3db0d37d	0.08634088
222	0xbc7eddac	-0.01555578
223	0xbe2eedde	-0.17082927
224	0xbe16f307	-0.14741145
225	0xbd2c0b29	-0.04200283
226	0xbe5ddd6f	-0.21666501
227	0xbdb0f69e	-0.086407885
228	0xbd9f7b60	-0.07787204
229	0x3d8fb56c	0.07017025
230	0xbc9b4797	-0.018955035
231	0x3b06eee6	0.0020589172
232	0xbd0c068a	-0.034185924
233	0xbd9befa9	-0.07614071
234	0xbd15d446	-0.036579393
235	0x3c8d14a6	0.01722176
236	0x3e1ea098	0.15490949
237	0x3dfcf78b	0.123519026
238	0x3d2795d7	0.040914383
239	0x3e03b25c	0.12861007
240	0xbdf3ab0b	-0.11897858
241	0x3e1486bc	0.14504522
242	0xbe12553e	-0.1429033
243	0xbd546ac3	-0.05185963
244	0x3bee7969	0.007277657
245	0xbd2bc99a	-0.04194031
246	0x3da53d7f	0.0806837
247	0x3cf27477	0.02959655
248	0x3e12a3eb	0.14320342
249	0x3e0967d7	0.13418518
250	0x3d4d625e	0.05014264
251	0xbc8624fa	-0.016375054
252	0x3d867a2f	0.065662734
253	0xbde48a47	-0.11159187
254	0x3d560bac	0.052257225
255	0xbda86162	-0.08221699

conv1.8.bias f4 [64]
0	0x3d6efbeb	0.058345716
1	0xbb2f7e10	-0.002677802
2	0x3d103de0	0.03521526
3	0x3d4f5ff0	0.050628603
4	0x3cb65671	0.022258015
5	0x3cb548bf	0.022129415
6	0xbc51bb5a	-0.012801016
7	0x3d3c462a	0.04596535
8	0xbd439a54	-0.0477546
9	0xbd8b3bac	-0.06798491
10	0x3bcdf04d	0.0062847496
11	0x3c4f6abc	0.012659725
12	0xbcfb2bfa	-0.030660618
13	0x3ce2f0d0	0.027702719
14	0xbc7c2eef	-0.015392049
15	0x3d9340c0	0.071900845
16	0x3ca130e3	0.019676631
17	0x3cad2874	0.021137454
18	0x3d518476	0.051151715
19	0xbc4b0da3	-0.012393388
20	0x3d314dd0	0.0432871
21	0x3cc5c66b	0.024142465
22	0x3d269def	0.04067796
23	0x3d2ada10	0.041711867
24	0xbcbd74f6	-0.02312706
25	0xbd8d49f1	-0.06898869
26	0xbd40296e	-0.04691451
27	0x3d1ebbcc	0.038753316
28	0xbd2d22db	-0.04226957
29	0x3cdabc4d	0.026701117
30	0x3d39fff4	0.04541011
31	0xbd085f81	-0.033294205
32	0xbc5e1af0	-0.013556227
33	0xbd38a73e	-0.04508137
34	0x3c9c7627	0.019099308
35	0xbd2b0c56	-0.04175981
36	0xbbd32318	-0.0064433925
37	0xbb6ec831	-0.0036435241
38	0xbb9862dc	-0.004650457
39	0xbd84c08a	-0.064820364
40	0xbd29cf31	-0.04145736
41	0xbcb8298b	-0.022480747
42	0xbc2f09b1	-0.010683463
43	0xbcd1705e	-0.025566276
44	0x3d74054e	0.05957537
45	0x3acb05e1	0.0015489423
46	0xbd8ac4e5	-0.06775836
47	0xbd66e6e0	-0.056372523
48	0x3c7c9e5a	0.015418613
49	0x3ca1b4aa	0.019739468
50	0xbbd01ac1	-0.0063508456
51	0xba85a312	-0.0010195693
52	0x3be32b10	0.0069326237
53	0x3c8abf5d	0.016936952
54	0xbd29c6fd	-0.041449536
55	0xbd8db4cc	-0.0691925
56	0x3c59883d	0.013277111
57	0xbd80f8d4	-0.0629746
58	0x3d93356a	0.07187922
59	0xbbf8aa9b	-0.007588697
60	0xbd17dd42	-0.037076242
61	0x3c5307e3	0.012880298
62	0xb9e54bad	-0.00043734667
63	0xbd1a3496	-0.037647806

conv1.9.weight f4 [64]
0	0x3f0a91ea	0.541289
1	0x3e713000	0.23553467
2	0x3f28e663	0.6597654
3	0x3f320f4a	0.6955458
4	0x3ed9e101	0.42554477
5	0x3e1c8808	0.15286267
6	0x3f53e384	0.82769036
7	0x3e8913fc	0.2677306
8	0x3ecc63fe	0.39920038
9	0x3f82025d	1.0156971
10	0x3f14affd	0.58081037
11	0x3f3ced19	0.7379928
12	0x3f6a2022	0.9145528
13	0x3f424b80	0.75896454
14	0x3eb48c9d	0.3526353
15	0x3f192f61	0.5983792
16	0x3f00b4f7	0.5027613
17	0x3eae64a7	0.34061167
18	0x3f19282a	0.5982691
19	0x3f6938c8	0.91102266
20	0x3e917d1f	0.28415772
21	0x3f242cc8	0.6413083
22	0x3e275c0f	0.16343711
23	0x3e78e4c7	0.24306022
24	0x3f8138e1	1.0095483
25	0x3e2af440	0.16694736
26	0x3e9f0232	0.31056362
27	0x3f59f732	0.85142815
28	0x3f24afd0	0.6433077
29	0x3e31d530	0.17366481
30	0x3f05db3b	0.52287644
31	0x3ec518c8	0.3849547
32	0x3f4b54a4	0.79426026
33	0x3eadac30	0.3392043
34	0x3ea8185c	0.32831085
35	0x3ed914f3	0.42398795
36	0x3f19a361	0.6001492
37	0x3f5524ef	0.8325948
38	0x3efd566f	0.49480006
39	0x3ebb9973	0.3664051
40	0x3f366348	0.7124524
41	0x3eb5ecce	0.3553223
42	0x3f3d17db	0.73864526
43	0x3f350f75	0.7072671
44	0x3e486c6d	0.19572611
45	0x3e9976b2	0.2997337
46	0x3f27d1f3	0.6555473
47	0x3f297735	0.6619752
48	0x3f553311	0.83281046
49	0x3f04274e	0.51622474
50	0x3ea7fef8	0.32811713
51	0x3f04c751	0.5186663
52	0x3edaf8a3	0.4276782
53	0x3f7aa37f	0.97905725
54	0x3ec8caa2	0.39217097
55	0x3f327540	0.6971016
56	0x3f3f1aa6	0.7465004
57	0x3ea590dd	0.32337084
58	0x3efed0f5	0.49768797
59	0x3f6a4035	0.9150422
60	0x3f172d63	0.5905363
61	0x3eae033b	0.3398684
62	0x3ef0453d	0.46927825
63	0x3e2bc57d	0.16774555

conv1.9.bias f4 [64]
0	0xbd6b3b27	-0.05742946
1	0xbd9955b3	-0.07487049
2	0xbbe0c553	-0.0068594604
3	0xbdb150e3	-0.08658006
4	0xbc2fc10e	-0.01072718
5	0xbd12ef90	-0.035872996
6	0xbe361bac	-0.17783993
7	0xbd677396	-0.056506716
8	0xbd97b22a	-0.07407029
9	0xbb87e778	-0.0041474663
10	0xbe0e9ac8	-0.13926232
11	0xbda2ea8e	-0.07954894
12	0xbd7d40b2	-0.061829276
13	0xbda63e06	-0.08117299
14	0xbd0da6b4	-0.03458281
15	0xbd763c41	-0.060116056
16	0xbd8803c1	-0.06641341
17	0xbe21ecc3	-0.15812974
18	0xbdf12ca6	-0.11776094
19	0xbe2e5faa	-0.1702868
20	0xbc698334	-0.014252473
21	0xbde677aa	-0.11253293
22	0xbdce11f1	-0.10062016
23	0xbd127957	-0.03576025
24	0xbd9af1a9	-0.07565624
25	0xbd62a6fa	-0.055335023
26	0xbc469c4a	-0.012122223
27	0xbdb07f30	-0.08618009
28	0xbddc6d88	-0.10763079
29	0xbd7a84ea	-0.061161913
30	0xbc74fee6	-0.014953351
31	0xbde27294	-0.1105701
32	0xbe0a2efc	-0.13494486
33	0xbcc62fd8	-0.024192736
34	0x3cb1072f	0.02160987
35	0xbdc4e792	-0.09614481
36	0xbd3273cf	-0.043567475
37	0xbdd853c4	-0.10562852
38	0xbde5c120	-0.11218476
39	0x3b231629	0.0024885035
40	0xbd031c67	-0.03200951
41	0xbd067f5f	-0.032836314
42	0xbe503db6	-0.20336041
43	0xbd5e9ef1	-0.054350797
44	0xbd9e669b	-0.07734414
45	0x3d18baea	0.03728763
46	0x3b5654cc	0.0032704351
47	0xbd4dba71	-0.050226633
48	0xbdb1f800	-0.0868988
49	0xbe07d4c1	-0.13264753
50	0xbd7b3ea5	-0.06133904
51	0xbdb72d5c	-0.089441985
52	0xbdac6c08	-0.08419043
53	0xbe0de0b9	-0.13855256
54	0xbdf6ed50	-0.120569825
55	0xbd1b7d1c	-0.03796111
56	0xbe216441	-0.157609
57	0x3d249215	0.040178377
58	0xbdcd11eb	-0.10013183
59	0xbe30971d	-0.17245145
60	0xbd4e1fe3	-0.05032338
61	0xbdefb5fd	-0.117046334
62	0x3da54586	0.08069901
63	0xbd8b01a1	-0.0678742

conv1.9.running_mean f4 [64]
0	0xbe7b44f8	-0.24538028
1	0xbf43c7f0	-0.76476955
2	0xbf1bbdc7	-0.6083645
3	0xbe462edc	-0.19353813
4	0xbd6c122c	-0.057634518
5	0x3ede8631	0.43461755
6	0xbf6685d0	-0.9004793
7	0xbef96c7d	-0.48715582
8	0xc00df963	-2.2183464
9	0xbed6c134	-0.41944277
10	0xbf1a29dd	-0.6022013
11	0xc003dcc5	-2.0603497
12	0x3ef61559	0.48063162
13	0xbf15dedc	-0.5854318
14	0x3f8cfe88	1.1015177
15	0x3e20fba3	0.15720992
16	0xc0451a0b	-3.0797145
17	0x3fcdc7d0	1.6076603
18	0xbf260ce9	-0.6486345
19	0x3f202c77	0.6256785
20	0xbf66432e	-0.8994626
21	0xc069f038	-3.6552868
22	0xbdac4b66	-0.084128186
23	0x400bef4c	2.1864805
24	0x3f4d2df0	0.8014822
25	0x3f3d1314	0.73857236
26	0xbf8d80fa	-1.1054986
27	0x3f251ca3	0.6449682
28	0xbffa7156	-1.9565837
29	0xc063394e	-3.5503726
30	0x3f26ded6	0.6518377
31	0xc0344a8c	-2.81705
32	0xbefbb74a	-0.49163276
33	0x3fac16c0	1.3444443
34	0xbfaf80ca	-1.3711178
35	0x3edf1a3f	0.43574712
36	0x3e8ba64e	0.27275318
37	0x3e5ea221	0.21741535
38	0xc01e1d0e	-2.4705234
39	0x3fa43052	1.2827246
40	0x3cd042f9	0.02542256
41	0x3f4dfd56	0.80464685
42	0x3f9e4e55	1.2367655
43	0xbfbbc1c1	-1.4668504
44	0xbd8aefae	-0.067839965
45	0xbfab9db0	-1.3407497
46	0xbfc45c4a	-1.5340664
47	0xbfd1150a	-1.6334546
48	0xbeb12aad	-0.34602872
49	0xbf0dfd83	-0.55464953
50	0xbffe008f	-1.984392
51	0x3cab911a	0.020943213
52	0xbffc1b99	-1.9695922
53	0x405099b0	3.2593803
54	0xc021ee15	-2.5301564
55	0x3fe5bf89	1.7949077
56	0xbf3356f5	-0.7005456
57	0xbdbc821b	-0.09204503
58	0x3feab713	1.833712
59	0xbf600f4e	-0.87523353
60	0x3ea9c66f	0.33159205
61	0xbfd1c7f9	-1.6389152
62	0xbeab34a4	-0.334386
63	0x3ec1f1a5	0.37879673

conv1.9.running_var f4 [64]
0	0x3f432e74	0.76242757
1	0x3f233a88	0.63761187
2	0x3e9b9ec2	0.3039456
3	0x3e9d7784	0.30755246
4	0x3eb0caae	0.34529632
5	0x3ea719b1	0.32636788
6	0x3f8720b0	1.055685
7	0x3efd422c	0.49464548
8	0x3f4846e2	0.7823316
9	0x3ee152b0	0.44008398
10	0x3f20c64f	0.62802595
11	0x3f537def	0.82614034
12	0x3ece8503	0.40335855
13	0x3f796dda	0.97433245
14	0x3f41c3f7	0.75689644
15	0x3e4da8a0	0.20083857
16	0x3ef343db	0.47512707
17	0x3edb0b41	0.42782024
18	0x3eff56a7	0.49870798
19	0x3f102701	0.56309515
20	0x3eaeaaf6	0.34114808
21	0x3f58834f	0.8457536
22	0x3f338742	0.7012826
23	0x3f1ec304	0.6201632
24	0x3eaa212b	0.3322843
25	0x3ec54a33	0.38533172
26	0x3f19bc79	0.6005321
27	0x3edd4e0b	0.43223605
28	0x3f48c02c	0.7841823
29	0x3f1adbe8	0.604918
30	0x3f519f7e	0.8188399
31	0x3f05e4f8	0.52302504
32	0x3ef26355	0.4734141
33	0x3f0b251c	0.543535
34	0x3edb9f36	0.42894906
35	0x3ebfc79d	0.3745698
36	0x3ec29318	0.3800285
37	0x3f57ed9c	0.8434694
38	0x3f39b30b	0.7253882
39	0x3ea0e13e	0.31421846
40	0x3ec5509f	0.38538072
41	0x3f19ffd2	0.60155976
42	0x3fbe55b6	1.4869907
43	0x3ed90a02	0.42390448
44	0x3e8f4ee7	0.27989885
45	0x3ec13e98	0.37743068
46	0x3ed8d4bd	0.42349806
47	0x3f221778	0.6331706
48	0x3f3dc447	0.7412762
49	0x3ea99669	0.33122566
50	0x3f08cbde	0.53436077
51	0x3f319bb9	0.6937824
52	0x3efb4e02	0.49082953
53	0x3f60b258	0.8777213
54	0x3ed6f165	0.41981044
55	0x3f488d84	0.78340936
56	0x3f0c8d02	0.5490266
57	0x3ed4b858	0.41546893
58	0x3f227b49	0.6346937
59	0x3f28a58c	0.65877604
60	0x3eb5e21f	0.3552408
61	0x3f2cc06b	0.67481107
62	0x3ea331b5	0.3187386
63	0x3f0b9e5e	0.54538524

linear1.0.weight f4 [128, 576]
0	0xbd11dc91	-0.03561074
1	0x3d893120	0.06698823
2	0xbd0a0119	-0.033692453
3	0x3be0cb6c	0.0068601873
4	0xbcfbe9a5	-0.030751059
5	0xbdec81e0	-0.11548209
6	0x3d6b677c	0.057471737
7	0xbdc64499	-0.09681053
8	0xbe1f9458	-0.15583932
9	0xbce09e73	-0.027419304
10	0xbdb150e5	-0.086580075
11	0xbdb41841	-0.087936886
12	0xbdc9c1c2	-0.098514095
13	0xbdfc6701	-0.12324334
14	0xbd0e8fc3	-0.03480507
15	0x3d1bcd43	0.03803755
16	0xbdb072e0	-0.08615661
17	0xbcdaccdf	-0.026709018
18	0x3d52ee83	0.051496994
19	0xbdb0a723	-0.08625629
20	0xbdae2a22	-0.0850413
21	0x3d8f5e08	0.07000357
22	0xbda6eec7	-0.08151012
23	0xbdf1f7cb	-0.11814841
24	0x3c052811	0.008127228
25	0xbc231ff7	-0.0099563515
26	0xbd8846f3	-0.066541575
27	0x3d3aeb07	0.045634296
28	0xbde5133b	-0.111853085
29	0xbdaf2368	-0.08551675
30	0x3c91d37a	0.017801035
31	0xbc8b7f00	-0.017028332
32	0x3b931ad9	0.0044892845
33	0x3d0203bc	0.031741843
34	0x3d8b7226	0.068088815
35	0x3d974323	0.07385852
36	0xbd9cc1ed	-0.07654176
37	0xbdf0d23d	-0.1175885
38	0xbd883f9e	-0.06652759
39	0xbd9ade3e	-0.075619206
40	0x3b7731ad	0.0037718818
41	0x3df70073	0.120606326
42	0xbcb50bb6	-0.02210031
43	0xbd2d7644	-0.042349115
44	0x3df19724	0.11796406
45	0xbe639a28	-0.22226775
46	0xbdd759f5	-0.10515205
47	0xbd5fcfad	-0.054641414
48	0xbda5070e	-0.08057986
49	0xbd865729	-0.06559593
50	0xbdcddd62	-0.10051991
51	0x3dcad6cc	0.099042505
52	0x3bbb2f5f	0.005712434
53	0x3d78ca23	0.060739648
54	0x3da5f943	0.081041835
55	0xbcebf9e8	-0.028805688
56	0xbe28892f	-0.16458581
57	0x3dddc428	0.108284295
58	0x3dd1ff60	0.10253787
59	0xbda68ce5	-0.08132342
60	0xbd3cafa2	-0.046065934
61	0x3cf26f66	0.029594135
62	0xbd98410c	-0.07434282
63	0xbcd8a727	-0.026446892
64	0x3ab2a8c7	0.0013630622
65	0xbd0db8ca	-0.034600057
66	0x3bd471f0	0.006483309
67	0x3da873e5	0.0822523
68	0x3d5a5aac	0.053309128
69	0x3dd137a5	0.102156915
70	0x3e0dd599	0.13851012
71	0x3dd34967	0.10316735
72	0x3ba9516a	0.005167176
73	0xbda1a8fd	-0.0789356
74	0x3d8c82ab	0.068608604
75	0xbdf8d4c8	-0.1214996
76	0xbe098095	-0.13427956
77	0x3d583af0	0.052790582
78	0xbdc29599	-0.0950119
79	0xbc3316c3	-0.01093072
80	0x3e7f0bf9	0.24906911
81	0xbbbaf2bb	-0.0057052053
82	0x3ce2b9bc	0.027676456
83	0xbcbe7b42	-0.023252133
84	0x3d2d19d0	0.042260945
85	0x3dda2d91	0.10653222
86	0x3d223965	0.039605517
87	0xbe05f52c	-0.13081807
88	0xbda6b82c	-0.08140597
89	0xbc992e1e	-0.018698748
90	0x3c89c169	0.016815858
91	0x3b683f07	0.0035437958
92	0xbc909802	-0.017650608
93	0xbc3fcbed	-0.011706335
94	0x3d8dbe08	0.06921011
95	0x3d2d733b	0.04234622
96	0x3d2a8003	0.041625988
97	0x3d6b6e55	0.057478268
98	0x3df6cccd	0.120507814
99	0x3bdc5847	0.0067243907
100	0xbcf08ded	-0.02936455
101	0x3a4fad2f	0.00079222297
102	0x3c0cd009	0.008594521
103	0x3db69921	0.08915926
104	0x3da65ec7	0.08123546
105	0xbd8e7e7e	-0.0695772
106	0xbc4ffcf6	-0.012694588
107	0xbda7ede2	-0.081996694
108	0x3cf8c447	0.03036703
109	0xbd2fb077	-0.0428929
110	0xbdbf1197	-0.09329527
111	0x3d8413e5	0.06449107
112	0x3b791560	0.0038007125
113	0xbdcd1f68	-0.10015756
114	0xbdc00dc2	-0.09377624
115	0x3cb27d82	0.021788362
116	0x3ddbc06e	0.107300624
117	0x3d107d2b	0.03527562
118	0x3d604f3d	0.054763068
119	0x3d48e291	0.049044196
120	0x3dc74cdb	0.09731456
121	0x3d39065b	0.045172077
122	0xbd52e1c4	-0.051484838
123	0x3db94a3d	0.09047363
124	0x3d241168	0.040055662
125	0xbda880cb	-0.0822769
126	0x3d82d0d4	0.06387487
127	0xbc92693a	-0.017872442
128	0xbdf6ea02	-0.12056352
129	0xbb562a56	-0.0032679043
130	0xbd3c296f	-0.04593795
131	0xbe19f647	-0.15035354
132	0xbd5fbfe5	-0.054626364
133	0xbdd7af56	-0.105314896
134	0xbe4407ce	-0.19143602
135	0xbd74ae05	-0.05973627
136	0xbdbd6ec1	-0.0924964
137	0x3ccb5fa5	0.02482588
138	0xba6d5130	-0.00090529304
139	0xbd7211eb	-0.05909912
140	0xbd2ecf8a	-0.042678393
141	0x3d3cdb36	0.046107493
142	0xbdab47c4	-0.083632976
143	0xbdf1f688	-0.118146
144	0xbc33dcfb	-0.010977979
145	0xbdf1ceca	-0.1180702
146	0xbd65effe	-0.056137078
147	0xbe03fa08	-0.12888348
148	0xbdd31930	-0.103075385
149	0xbc8d8ff3	-0.017280554
150	0xbd22e16f	-0.03976577
151	0xbae972d5	-0.0017810712
152	0x3e058db8	0.13042343
153	0xbdfdacf6	-0.12386505
154	0xbd0ecbc4	-0.034862295
155	0xbdb390cf	-0.087678544
156	0xbd10f1cf	-0.035386857
157	0x3dee74bf	0.11643361
158	0x3ca4e298	0.02012758
159	0xbb16ae3e	-0.002299204
160	0x3de896fa	0.113569215
161	0x3e166ab4	0.14689142
162	0xbd8f89f7	-0.070087366
163	0xbdb49424	-0.08817318
164	0xbc08e7fa	-0.008356089
165	0xbcbc45de	-0.022982534
166	0x3bc65ead	0.0060537667
167	0x3cdfde94	0.027327813
168	0x3d73b60d	0.05949979
169	0x3e24085e	0.16018817
170	0x3d278e18	0.040906996
171	0x3da19282	0.07889272
172	0x3d99571c	0.07487318
173	0xbdd5e4fa	-0.104440644
174	0xbc017708	-0.007901914
175	0x3cbd33e3	0.02309603
176	0xbdbd02e0	-0.09229064
177	0x3bf01aa0	0.0073273927
178	0xbd42d7cf	-0.047569092
179	0xbe03820f	-0.12842582
180	0x3bebc1f8	0.0071947537
181	0xbcbd8120	-0.02313286
182	0xbd294086	-0.0413213
183	0xbd53aa6d	-0.051676203
184	0xbda4a1a8	-0.08038646
185	0xbd810538	-0.062998235
186	0xbc9257ae	-0.017864075
187	0x3d87673b	0.066114865
188	0x3cc18629	0.023623543
189	0x3d752b64	0.059855834
190	0xbcb55b19	-0.022138165
191	0xbd751414	-0.0598336
192	0x3b3c9b63	0.002877914
193	0xbcbc01a8	-0.022950009
194	0xbd38328b	-0.044970077
195	0x3cbc0623	0.022952145
196	0x3cbe8baf	0.023259966
197	0x3d2fa926	0.042885922
198	0x3c6de781	0.014520527
199	0x3d6fe9ce	0.058572583
200	0x3dc4d271	0.09610451
201	0xbb90a134	-0.004413748
202	0xbbfa0abd	-0.0076306746
203	0x3c476829	0.01217083
204	0x3dd43f69	0.10363657
205	0x3dcece4c	0.10097942
206	0x3d64c8e5	0.05585565
207	0xb9e076d8	-0.00042813155
208	0x3da95d0c	0.082697004
209	0x3ce22217	0.027604146
210	0x3e1b1c65	0.1514755
211	0x3e1d64e6	0.15370521
212	0xbd004d2d	-0.0313236
213	0x3e19e76d	0.15029688
214	0x3e39657a	0.18105116
215	0x3da46d05	0.08028606
216	0xbdbb598b	-0.09147938
217	0xbe53b035	-0.20672686
218	0xbe1b8236	-0.1518639
219	0x3d615aad	0.055018116
220	0xbcbb565d	-0.02286833
221	0xbb48d3c1	-0.0030643793
222	0x3d9ff7a4	0.078109056
223	0x3ddc9bbf	0.10771894
224	0x3e011cb3	0.12608604
225	0x3ca71d49	0.020399706
226	0xbe1f6a5c	-0.15567917
227	0xbd5ca446	-0.0538676
228	0x3dc4fe6d	0.0961884
229	0x3d48daa7	0.049036648
230	0x3d445834	0.04793568
231	0x3de4f351	0.111792214
232	0x3d8fc2dd	0.07019589
233	0x3e27312f	0.16327356
234	0x3de2060a	0.11036308
235	0xbde73864	-0.112900525
236	0x3d6bc6ef	0.057562765
237	0x3c599392	0.013279812
238	0xbce9bcb3	-0.028532362
239	0x3dc659e3	0.09685113
240	0xbd45d35e	-0.04829728
241	0x3d7222a3	0.059115063
242	0x3e69ddf3	0.22838573
243	0x3dbced43	0.092249416
244	0x3d26bfff	0.040710445
245	0xbdab4f64	-0.08364752
246	0x3d157b26	0.036494397
247	0x3d6a0691	0.05713517
248	0xb9a2c886	-0.0003104845
249	0x3d2ee2da	0.04269681
250	0x3e018229	0.12647308
251	0x3d69400e	0.056945853
252	0x3df57607	0.119854026
253	0xbc58545c	-0.013203707
254	0x3cf5e9c5	0.030018697
255	0x3d69a23d	0.057039488

linear1.0.bias f4 [128]
0	0xbc5ef9e1	-0.01360938
1	0x3cec3021	0.028831543
2	0x3c903fdc	0.017608576
3	0x3d3350b4	0.043778136
4	0xbd46dc7e	-0.04855012
5	0xbbf899e1	-0.007586703
6	0xbc1b291b	-0.0094702495
7	0x3e0ed415	0.1394809
8	0xbcba1bec	-0.022718392
9	0x3ce92cb8	0.028463706
10	0x3d0a2f3e	0.03373646
11	0x3d553239	0.05204985
12	0xbc4147e5	-0.011796926
13	0x3cd8336d	0.02639171
14	0x3cd4228a	0.025895376
15	0x3c5625b8	0.013070516
16	0x3d9189ef	0.07106387
17	0x3da7a977	0.0818662
18	0x3d3cd8e4	0.04610528
19	0x3c28ac47	0.01029498
20	0x3c2ca229	0.010536709
21	0x3d00f02d	0.03147905
22	0xbd36a93f	-0.044595
23	0x3ce23f0a	0.02761795
24	0x3d71e281	0.0590539
25	0xbc9a7b38	-0.018857583
26	0x3db80049	0.089844294
27	0x3d379c9c	0.04482709
28	0x3b953ba6	0.00455423
29	0xbd87b650	-0.0662657
30	0x3c4b4935	0.012407591
31	0x3d06f618	0.032949537
32	0x3d2199ff	0.039453503
33	0xbd57efc5	-0.052718896
34	0xbd61bf3b	-0.055114012
35	0x3c049e47	0.008094377
36	0xbd6440f3	-0.055726003
37	0x3cc5f3d0	0.02416411
38	0xbbcab24c	-0.0061858054
39	0x3d1eb4d9	0.03874669
40	0x3df0504a	0.11734064
41	0x3d0e5fac	0.03475921
42	0x3d1397ba	0.03603337
43	0x3b3969de	0.0028291862
44	0xbd7e4b39	-0.062083457
45	0xbc97c66e	-0.018527236
46	0xbccd1d96	-0.025038522
47	0x3cf4f1d2	0.029900465
48	0xbc61bee5	-0.013778423
49	0x3d148d04	0.036267295
50	0x3d907afa	0.07054706
51	0x3d39befc	0.045348153
52	0x3d3ddeb8	0.04635498
53	0xbd24a6f3	-0.040198278
54	0xbc91583c	-0.017742269
55	0xbb2e2405	-0.0026571762
56	0x3c080ad6	0.008303365
57	0x3c8ccb29	0.017186718
58	0x3d7bb35e	0.061450355
59	0xbcced50a	-0.02524807
60	0x3cccad16	0.024984878
61	0x3d99db50	0.07512534
62	0xbc897915	-0.01678137
63	0x3d720336	0.059085093
64	0xbcfc6783	-0.030811077
65	0x3dc376b0	0.09544122
66	0x3d2cb579	0.042165253
67	0x3dc74f10	0.09731877
68	0xbc249a4b	-0.010046552
69	0x3d774981	0.060372833
70	0x3d93e9d3	0.07222333
71	0x3e0f1870	0.13974166
72	0x3cb9626f	0.022629945
73	0x3e0eda2c	0.13950413
74	0x3d86e94b	0.06587466
75	0x3d3403c1	0.043948893
76	0x3da820e6	0.082094
77	0x3b7a47a6	0.0038189678
78	0xbc651bbc	-0.013983663
79	0x3d54128c	0.0517755
80	0x3c98b1ca	0.018639464
81	0xbda3be0a	-0.079952314
82	0xbd809b36	-0.06279604
83	0xbcc34d2c	-0.02384051
84	0xbd0f54f7	-0.03499314
85	0xbd44e8d5	-0.04807361
86	0x3d09edb1	0.033673946
87	0x3d508b3c	0.050914034
88	0x3d4a9556	0.049458824
89	0x3d77fd51	0.060544316
90	0x3bfb4898	0.007668566
91	0x3c9ef3d9	0.019403385
92	0x3b9ccaea	0.0047849314
93	0xbd658c4e	-0.056042008
94	0x3da4a871	0.0803994
95	0x3d9c1e15	0.07622925
96	0xbc9df16e	-0.019280162
97	0xbbad4306	-0.005287531
98	0x3d02b10c	0.031907126
99	0x3d1cb989	0.038262878
100	0x3c0d83d8	0.008637391
101	0x3da7e7d2	0.08198513
102	0x3e1d8c35	0.15385516
103	0x3d2cb98c	0.04216914
104	0x3d051379	0.032489274
105	0xbc8b6e89	-0.01702048
106	0x3d9cd83a	0.076584294
107	0x3d304429	0.043033753
108	0x3bedc8f2	0.0072566206
109	0x3c79b459	0.015240752
110	0x3c3c5c62	0.011496635
111	0x3d635576	0.055501424
112	0x3d52bcf9	0.05144975
113	0x3d30788b	0.04308371
114	0xbcf1177a	-0.02943014
115	0xbd13e178	-0.036103696
116	0xbc30321e	-0.010754136
117	0xbd7c49f0	-0.06159395
118	0x3dbb003d	0.09130905
119	0x3d4e33b3	0.050342273
120	0xbd77c3f1	-0.0604896
121	0x3cc646f4	0.024203755
122	0x3dcc7321	0.099828966
123	0x3d0dd9f2	0.034631677
124	0xbccbd45a	-0.02488153
125	0xbd317ce9	-0.043332014
126	0xbcfbaf7c	-0.030723326
127	0xbc798711	-0.015229956
